{"format": "layers-model", "generatedBy": "keras v2.4.0", "convertedBy": "TensorFlow.js Converter v3.4.0", "modelTopology": {"keras_version": "2.4.0", "backend": "tensorflow", "model_config": {"class_name": "Functional", "config": {"name": "EfficientNet", "layers": [{"class_name": "InputLayer", "config": {"batch_input_shape": [null, 380, 380, 3], "dtype": "float32", "sparse": false, "ragged": false, "name": "input_3"}, "name": "input_3", "inbound_nodes": []}, {"class_name": "Sequential", "config": {"name": "img_augmentation", "layers": [{"class_name": "InputLayer", "config": {"batch_input_shape": [null, 380, 380, 3], "dtype": "float32", "sparse": false, "ragged": false, "name": "random_zoom_3_input"}}, {"class_name": "RandomZoom", "config": {"name": "random_zoom_3", "trainable": false, "dtype": "float32", "height_factor": [-0.25, 0.0], "width_factor": [-0.25, 0], "fill_mode": "constant", "fill_value": 0.0, "interpolation": "bilinear", "seed": null}}, {"class_name": "RandomFlip", "config": {"name": "random_flip_3", "trainable": false, "dtype": "float32", "mode": "horizontal_and_vertical", "seed": null}}]}, "name": "img_augmentation", "inbound_nodes": [[["input_3", 0, 0, {}]]]}, {"class_name": "Rescaling", "config": {"name": "rescaling_3", "trainable": false, "dtype": "float32", "scale": 0.00392156862745098, "offset": 0.0}, "name": "rescaling_3", "inbound_nodes": [[["img_augmentation", 1, 0, {}]]]}, {"class_name": "Normalization", "config": {"name": "normalization_2", "trainable": false, "dtype": "float32", "axis": [3]}, "name": "normalization_2", "inbound_nodes": [[["rescaling_3", 0, 0, {}]]]}, {"class_name": "ZeroPadding2D", "config": {"name": "stem_conv_pad", "trainable": false, "dtype": "float32", "padding": [[0, 1], [0, 1]], "data_format": "channels_last"}, "name": "stem_conv_pad", "inbound_nodes": [[["normalization_2", 0, 0, {}]]]}, {"class_name": "Conv2D", "config": {"name": "stem_conv", "trainable": false, "dtype": "float32", "filters": 48, "kernel_size": [3, 3], "strides": [2, 2], "padding": "valid", "data_format": "channels_last", "dilation_rate": [1, 1], "groups": 1, "activation": "linear", "use_bias": false, "kernel_initializer": {"class_name": "VarianceScaling", "config": {"scale": 2.0, "mode": "fan_out", "distribution": "truncated_normal", "seed": null}}, "bias_initializer": {"class_name": "Zeros", "config": {}}, "kernel_regularizer": null, "bias_regularizer": null, "activity_regularizer": null, "kernel_constraint": null, "bias_constraint": null}, "name": "stem_conv", "inbound_nodes": [[["stem_conv_pad", 0, 0, {}]]]}, {"class_name": "BatchNormalization", "config": {"name": "stem_bn", "trainable": false, "dtype": "float32", "axis": [3], "momentum": 0.99, "epsilon": 0.001, "center": true, "scale": true, "beta_initializer": {"class_name": "Zeros", "config": {}}, "gamma_initializer": {"class_name": "Ones", "config": {}}, "moving_mean_initializer": {"class_name": "Zeros", "config": {}}, "moving_variance_initializer": {"class_name": "Ones", "config": {}}, "beta_regularizer": null, "gamma_regularizer": null, "beta_constraint": null, "gamma_constraint": null}, "name": "stem_bn", "inbound_nodes": [[["stem_conv", 0, 0, {}]]]}, {"class_name": "Activation", "config": {"name": "stem_activation", "trainable": false, "dtype": "float32", "activation": "swish"}, "name": "stem_activation", "inbound_nodes": [[["stem_bn", 0, 0, {}]]]}, {"class_name": "DepthwiseConv2D", "config": {"name": "block1a_dwconv", "trainable": false, "dtype": "float32", "kernel_size": [3, 3], "strides": [1, 1], "padding": "same", "data_format": "channels_last", "dilation_rate": [1, 1], "groups": 1, "activation": "linear", "use_bias": false, "bias_initializer": {"class_name": "Zeros", "config": {}}, "bias_regularizer": null, "activity_regularizer": null, "bias_constraint": null, "depth_multiplier": 1, "depthwise_initializer": {"class_name": "VarianceScaling", "config": {"scale": 2.0, "mode": "fan_out", "distribution": "truncated_normal", "seed": null}}, "depthwise_regularizer": null, "depthwise_constraint": null}, "name": "block1a_dwconv", "inbound_nodes": [[["stem_activation", 0, 0, {}]]]}, {"class_name": "BatchNormalization", "config": {"name": "block1a_bn", "trainable": false, "dtype": "float32", "axis": [3], "momentum": 0.99, "epsilon": 0.001, "center": true, "scale": true, "beta_initializer": {"class_name": "Zeros", "config": {}}, "gamma_initializer": {"class_name": "Ones", "config": {}}, "moving_mean_initializer": {"class_name": "Zeros", "config": {}}, "moving_variance_initializer": {"class_name": "Ones", "config": {}}, "beta_regularizer": null, "gamma_regularizer": null, "beta_constraint": null, "gamma_constraint": null}, "name": "block1a_bn", "inbound_nodes": [[["block1a_dwconv", 0, 0, {}]]]}, {"class_name": "Activation", "config": {"name": "block1a_activation", "trainable": false, "dtype": "float32", "activation": "swish"}, "name": "block1a_activation", "inbound_nodes": [[["block1a_bn", 0, 0, {}]]]}, {"class_name": "GlobalAveragePooling2D", "config": {"name": "block1a_se_squeeze", "trainable": false, "dtype": "float32", "data_format": "channels_last"}, "name": "block1a_se_squeeze", "inbound_nodes": [[["block1a_activation", 0, 0, {}]]]}, {"class_name": "Reshape", "config": {"name": "block1a_se_reshape", "trainable": false, "dtype": "float32", "target_shape": [1, 1, 48]}, "name": "block1a_se_reshape", "inbound_nodes": [[["block1a_se_squeeze", 0, 0, {}]]]}, {"class_name": "Conv2D", "config": {"name": "block1a_se_reduce", "trainable": false, "dtype": "float32", "filters": 12, "kernel_size": [1, 1], "strides": [1, 1], "padding": "same", "data_format": "channels_last", "dilation_rate": [1, 1], "groups": 1, "activation": "swish", "use_bias": true, "kernel_initializer": {"class_name": "VarianceScaling", "config": {"scale": 2.0, "mode": "fan_out", "distribution": "truncated_normal", "seed": null}}, "bias_initializer": {"class_name": "Zeros", "config": {}}, "kernel_regularizer": null, "bias_regularizer": null, "activity_regularizer": null, "kernel_constraint": null, "bias_constraint": null}, "name": "block1a_se_reduce", "inbound_nodes": [[["block1a_se_reshape", 0, 0, {}]]]}, {"class_name": "Conv2D", "config": {"name": "block1a_se_expand", "trainable": false, "dtype": "float32", "filters": 48, "kernel_size": [1, 1], "strides": [1, 1], "padding": "same", "data_format": "channels_last", "dilation_rate": [1, 1], "groups": 1, "activation": "sigmoid", "use_bias": true, "kernel_initializer": {"class_name": "VarianceScaling", "config": {"scale": 2.0, "mode": "fan_out", "distribution": "truncated_normal", "seed": null}}, "bias_initializer": {"class_name": "Zeros", "config": {}}, "kernel_regularizer": null, "bias_regularizer": null, "activity_regularizer": null, "kernel_constraint": null, "bias_constraint": null}, "name": "block1a_se_expand", "inbound_nodes": [[["block1a_se_reduce", 0, 0, {}]]]}, {"class_name": "Multiply", "config": {"name": "block1a_se_excite", "trainable": false, "dtype": "float32"}, "name": "block1a_se_excite", "inbound_nodes": [[["block1a_activation", 0, 0, {}], ["block1a_se_expand", 0, 0, {}]]]}, {"class_name": "Conv2D", "config": {"name": "block1a_project_conv", "trainable": false, "dtype": "float32", "filters": 24, "kernel_size": [1, 1], "strides": [1, 1], "padding": "same", "data_format": "channels_last", "dilation_rate": [1, 1], "groups": 1, "activation": "linear", "use_bias": false, "kernel_initializer": {"class_name": "VarianceScaling", "config": {"scale": 2.0, "mode": "fan_out", "distribution": "truncated_normal", "seed": null}}, "bias_initializer": {"class_name": "Zeros", "config": {}}, "kernel_regularizer": null, "bias_regularizer": null, "activity_regularizer": null, "kernel_constraint": null, "bias_constraint": null}, "name": "block1a_project_conv", "inbound_nodes": [[["block1a_se_excite", 0, 0, {}]]]}, {"class_name": "BatchNormalization", "config": {"name": "block1a_project_bn", "trainable": false, "dtype": "float32", "axis": [3], "momentum": 0.99, "epsilon": 0.001, "center": true, "scale": true, "beta_initializer": {"class_name": "Zeros", "config": {}}, "gamma_initializer": {"class_name": "Ones", "config": {}}, "moving_mean_initializer": {"class_name": "Zeros", "config": {}}, "moving_variance_initializer": {"class_name": "Ones", "config": {}}, "beta_regularizer": null, "gamma_regularizer": null, "beta_constraint": null, "gamma_constraint": null}, "name": "block1a_project_bn", "inbound_nodes": [[["block1a_project_conv", 0, 0, {}]]]}, {"class_name": "DepthwiseConv2D", "config": {"name": "block1b_dwconv", "trainable": false, "dtype": "float32", "kernel_size": [3, 3], "strides": [1, 1], "padding": "same", "data_format": "channels_last", "dilation_rate": [1, 1], "groups": 1, "activation": "linear", "use_bias": false, "bias_initializer": {"class_name": "Zeros", "config": {}}, "bias_regularizer": null, "activity_regularizer": null, "bias_constraint": null, "depth_multiplier": 1, "depthwise_initializer": {"class_name": "VarianceScaling", "config": {"scale": 2.0, "mode": "fan_out", "distribution": "truncated_normal", "seed": null}}, "depthwise_regularizer": null, "depthwise_constraint": null}, "name": "block1b_dwconv", "inbound_nodes": [[["block1a_project_bn", 0, 0, {}]]]}, {"class_name": "BatchNormalization", "config": {"name": "block1b_bn", "trainable": false, "dtype": "float32", "axis": [3], "momentum": 0.99, "epsilon": 0.001, "center": true, "scale": true, "beta_initializer": {"class_name": "Zeros", "config": {}}, "gamma_initializer": {"class_name": "Ones", "config": {}}, "moving_mean_initializer": {"class_name": "Zeros", "config": {}}, "moving_variance_initializer": {"class_name": "Ones", "config": {}}, "beta_regularizer": null, "gamma_regularizer": null, "beta_constraint": null, "gamma_constraint": null}, "name": "block1b_bn", "inbound_nodes": [[["block1b_dwconv", 0, 0, {}]]]}, {"class_name": "Activation", "config": {"name": "block1b_activation", "trainable": false, "dtype": "float32", "activation": "swish"}, "name": "block1b_activation", "inbound_nodes": [[["block1b_bn", 0, 0, {}]]]}, {"class_name": "GlobalAveragePooling2D", "config": {"name": "block1b_se_squeeze", "trainable": false, "dtype": "float32", "data_format": "channels_last"}, "name": "block1b_se_squeeze", "inbound_nodes": [[["block1b_activation", 0, 0, {}]]]}, {"class_name": "Reshape", "config": {"name": "block1b_se_reshape", "trainable": false, "dtype": "float32", "target_shape": [1, 1, 24]}, "name": "block1b_se_reshape", "inbound_nodes": [[["block1b_se_squeeze", 0, 0, {}]]]}, {"class_name": "Conv2D", "config": {"name": "block1b_se_reduce", "trainable": false, "dtype": "float32", "filters": 6, "kernel_size": [1, 1], "strides": [1, 1], "padding": "same", "data_format": "channels_last", "dilation_rate": [1, 1], "groups": 1, "activation": "swish", "use_bias": true, "kernel_initializer": {"class_name": "VarianceScaling", "config": {"scale": 2.0, "mode": "fan_out", "distribution": "truncated_normal", "seed": null}}, "bias_initializer": {"class_name": "Zeros", "config": {}}, "kernel_regularizer": null, "bias_regularizer": null, "activity_regularizer": null, "kernel_constraint": null, "bias_constraint": null}, "name": "block1b_se_reduce", "inbound_nodes": [[["block1b_se_reshape", 0, 0, {}]]]}, {"class_name": "Conv2D", "config": {"name": "block1b_se_expand", "trainable": false, "dtype": "float32", "filters": 24, "kernel_size": [1, 1], "strides": [1, 1], "padding": "same", "data_format": "channels_last", "dilation_rate": [1, 1], "groups": 1, "activation": "sigmoid", "use_bias": true, "kernel_initializer": {"class_name": "VarianceScaling", "config": {"scale": 2.0, "mode": "fan_out", "distribution": "truncated_normal", "seed": null}}, "bias_initializer": {"class_name": "Zeros", "config": {}}, "kernel_regularizer": null, "bias_regularizer": null, "activity_regularizer": null, "kernel_constraint": null, "bias_constraint": null}, "name": "block1b_se_expand", "inbound_nodes": [[["block1b_se_reduce", 0, 0, {}]]]}, {"class_name": "Multiply", "config": {"name": "block1b_se_excite", "trainable": false, "dtype": "float32"}, "name": "block1b_se_excite", "inbound_nodes": [[["block1b_activation", 0, 0, {}], ["block1b_se_expand", 0, 0, {}]]]}, {"class_name": "Conv2D", "config": {"name": "block1b_project_conv", "trainable": false, "dtype": "float32", "filters": 24, "kernel_size": [1, 1], "strides": [1, 1], "padding": "same", "data_format": "channels_last", "dilation_rate": [1, 1], "groups": 1, "activation": "linear", "use_bias": false, "kernel_initializer": {"class_name": "VarianceScaling", "config": {"scale": 2.0, "mode": "fan_out", "distribution": "truncated_normal", "seed": null}}, "bias_initializer": {"class_name": "Zeros", "config": {}}, "kernel_regularizer": null, "bias_regularizer": null, "activity_regularizer": null, "kernel_constraint": null, "bias_constraint": null}, "name": "block1b_project_conv", "inbound_nodes": [[["block1b_se_excite", 0, 0, {}]]]}, {"class_name": "BatchNormalization", "config": {"name": "block1b_project_bn", "trainable": false, "dtype": "float32", "axis": [3], "momentum": 0.99, "epsilon": 0.001, "center": true, "scale": true, "beta_initializer": {"class_name": "Zeros", "config": {}}, "gamma_initializer": {"class_name": "Ones", "config": {}}, "moving_mean_initializer": {"class_name": "Zeros", "config": {}}, "moving_variance_initializer": {"class_name": "Ones", "config": {}}, "beta_regularizer": null, "gamma_regularizer": null, "beta_constraint": null, "gamma_constraint": null}, "name": "block1b_project_bn", "inbound_nodes": [[["block1b_project_conv", 0, 0, {}]]]}, {"class_name": "Dropout", "config": {"name": "block1b_drop", "trainable": false, "dtype": "float32", "rate": 0.00625, "noise_shape": [null, 1, 1, 1], "seed": null}, "name": "block1b_drop", "inbound_nodes": [[["block1b_project_bn", 0, 0, {}]]]}, {"class_name": "Add", "config": {"name": "block1b_add", "trainable": false, "dtype": "float32"}, "name": "block1b_add", "inbound_nodes": [[["block1b_drop", 0, 0, {}], ["block1a_project_bn", 0, 0, {}]]]}, {"class_name": "Conv2D", "config": {"name": "block2a_expand_conv", "trainable": false, "dtype": "float32", "filters": 144, "kernel_size": [1, 1], "strides": [1, 1], "padding": "same", "data_format": "channels_last", "dilation_rate": [1, 1], "groups": 1, "activation": "linear", "use_bias": false, "kernel_initializer": {"class_name": "VarianceScaling", "config": {"scale": 2.0, "mode": "fan_out", "distribution": "truncated_normal", "seed": null}}, "bias_initializer": {"class_name": "Zeros", "config": {}}, "kernel_regularizer": null, "bias_regularizer": null, "activity_regularizer": null, "kernel_constraint": null, "bias_constraint": null}, "name": "block2a_expand_conv", "inbound_nodes": [[["block1b_add", 0, 0, {}]]]}, {"class_name": "BatchNormalization", "config": {"name": "block2a_expand_bn", "trainable": false, "dtype": "float32", "axis": [3], "momentum": 0.99, "epsilon": 0.001, "center": true, "scale": true, "beta_initializer": {"class_name": "Zeros", "config": {}}, "gamma_initializer": {"class_name": "Ones", "config": {}}, "moving_mean_initializer": {"class_name": "Zeros", "config": {}}, "moving_variance_initializer": {"class_name": "Ones", "config": {}}, "beta_regularizer": null, "gamma_regularizer": null, "beta_constraint": null, "gamma_constraint": null}, "name": "block2a_expand_bn", "inbound_nodes": [[["block2a_expand_conv", 0, 0, {}]]]}, {"class_name": "Activation", "config": {"name": "block2a_expand_activation", "trainable": false, "dtype": "float32", "activation": "swish"}, "name": "block2a_expand_activation", "inbound_nodes": [[["block2a_expand_bn", 0, 0, {}]]]}, {"class_name": "ZeroPadding2D", "config": {"name": "block2a_dwconv_pad", "trainable": false, "dtype": "float32", "padding": [[0, 1], [0, 1]], "data_format": "channels_last"}, "name": "block2a_dwconv_pad", "inbound_nodes": [[["block2a_expand_activation", 0, 0, {}]]]}, {"class_name": "DepthwiseConv2D", "config": {"name": "block2a_dwconv", "trainable": false, "dtype": "float32", "kernel_size": [3, 3], "strides": [2, 2], "padding": "valid", "data_format": "channels_last", "dilation_rate": [1, 1], "groups": 1, "activation": "linear", "use_bias": false, "bias_initializer": {"class_name": "Zeros", "config": {}}, "bias_regularizer": null, "activity_regularizer": null, "bias_constraint": null, "depth_multiplier": 1, "depthwise_initializer": {"class_name": "VarianceScaling", "config": {"scale": 2.0, "mode": "fan_out", "distribution": "truncated_normal", "seed": null}}, "depthwise_regularizer": null, "depthwise_constraint": null}, "name": "block2a_dwconv", "inbound_nodes": [[["block2a_dwconv_pad", 0, 0, {}]]]}, {"class_name": "BatchNormalization", "config": {"name": "block2a_bn", "trainable": false, "dtype": "float32", "axis": [3], "momentum": 0.99, "epsilon": 0.001, "center": true, "scale": true, "beta_initializer": {"class_name": "Zeros", "config": {}}, "gamma_initializer": {"class_name": "Ones", "config": {}}, "moving_mean_initializer": {"class_name": "Zeros", "config": {}}, "moving_variance_initializer": {"class_name": "Ones", "config": {}}, "beta_regularizer": null, "gamma_regularizer": null, "beta_constraint": null, "gamma_constraint": null}, "name": "block2a_bn", "inbound_nodes": [[["block2a_dwconv", 0, 0, {}]]]}, {"class_name": "Activation", "config": {"name": "block2a_activation", "trainable": false, "dtype": "float32", "activation": "swish"}, "name": "block2a_activation", "inbound_nodes": [[["block2a_bn", 0, 0, {}]]]}, {"class_name": "GlobalAveragePooling2D", "config": {"name": "block2a_se_squeeze", "trainable": false, "dtype": "float32", "data_format": "channels_last"}, "name": "block2a_se_squeeze", "inbound_nodes": [[["block2a_activation", 0, 0, {}]]]}, {"class_name": "Reshape", "config": {"name": "block2a_se_reshape", "trainable": false, "dtype": "float32", "target_shape": [1, 1, 144]}, "name": "block2a_se_reshape", "inbound_nodes": [[["block2a_se_squeeze", 0, 0, {}]]]}, {"class_name": "Conv2D", "config": {"name": "block2a_se_reduce", "trainable": false, "dtype": "float32", "filters": 6, "kernel_size": [1, 1], "strides": [1, 1], "padding": "same", "data_format": "channels_last", "dilation_rate": [1, 1], "groups": 1, "activation": "swish", "use_bias": true, "kernel_initializer": {"class_name": "VarianceScaling", "config": {"scale": 2.0, "mode": "fan_out", "distribution": "truncated_normal", "seed": null}}, "bias_initializer": {"class_name": "Zeros", "config": {}}, "kernel_regularizer": null, "bias_regularizer": null, "activity_regularizer": null, "kernel_constraint": null, "bias_constraint": null}, "name": "block2a_se_reduce", "inbound_nodes": [[["block2a_se_reshape", 0, 0, {}]]]}, {"class_name": "Conv2D", "config": {"name": "block2a_se_expand", "trainable": false, "dtype": "float32", "filters": 144, "kernel_size": [1, 1], "strides": [1, 1], "padding": "same", "data_format": "channels_last", "dilation_rate": [1, 1], "groups": 1, "activation": "sigmoid", "use_bias": true, "kernel_initializer": {"class_name": "VarianceScaling", "config": {"scale": 2.0, "mode": "fan_out", "distribution": "truncated_normal", "seed": null}}, "bias_initializer": {"class_name": "Zeros", "config": {}}, "kernel_regularizer": null, "bias_regularizer": null, "activity_regularizer": null, "kernel_constraint": null, "bias_constraint": null}, "name": "block2a_se_expand", "inbound_nodes": [[["block2a_se_reduce", 0, 0, {}]]]}, {"class_name": "Multiply", "config": {"name": "block2a_se_excite", "trainable": false, "dtype": "float32"}, "name": "block2a_se_excite", "inbound_nodes": [[["block2a_activation", 0, 0, {}], ["block2a_se_expand", 0, 0, {}]]]}, {"class_name": "Conv2D", "config": {"name": "block2a_project_conv", "trainable": false, "dtype": "float32", "filters": 32, "kernel_size": [1, 1], "strides": [1, 1], "padding": "same", "data_format": "channels_last", "dilation_rate": [1, 1], "groups": 1, "activation": "linear", "use_bias": false, "kernel_initializer": {"class_name": "VarianceScaling", "config": {"scale": 2.0, "mode": "fan_out", "distribution": "truncated_normal", "seed": null}}, "bias_initializer": {"class_name": "Zeros", "config": {}}, "kernel_regularizer": null, "bias_regularizer": null, "activity_regularizer": null, "kernel_constraint": null, "bias_constraint": null}, "name": "block2a_project_conv", "inbound_nodes": [[["block2a_se_excite", 0, 0, {}]]]}, {"class_name": "BatchNormalization", "config": {"name": "block2a_project_bn", "trainable": false, "dtype": "float32", "axis": [3], "momentum": 0.99, "epsilon": 0.001, "center": true, "scale": true, "beta_initializer": {"class_name": "Zeros", "config": {}}, "gamma_initializer": {"class_name": "Ones", "config": {}}, "moving_mean_initializer": {"class_name": "Zeros", "config": {}}, "moving_variance_initializer": {"class_name": "Ones", "config": {}}, "beta_regularizer": null, "gamma_regularizer": null, "beta_constraint": null, "gamma_constraint": null}, "name": "block2a_project_bn", "inbound_nodes": [[["block2a_project_conv", 0, 0, {}]]]}, {"class_name": "Conv2D", "config": {"name": "block2b_expand_conv", "trainable": false, "dtype": "float32", "filters": 192, "kernel_size": [1, 1], "strides": [1, 1], "padding": "same", "data_format": "channels_last", "dilation_rate": [1, 1], "groups": 1, "activation": "linear", "use_bias": false, "kernel_initializer": {"class_name": "VarianceScaling", "config": {"scale": 2.0, "mode": "fan_out", "distribution": "truncated_normal", "seed": null}}, "bias_initializer": {"class_name": "Zeros", "config": {}}, "kernel_regularizer": null, "bias_regularizer": null, "activity_regularizer": null, "kernel_constraint": null, "bias_constraint": null}, "name": "block2b_expand_conv", "inbound_nodes": [[["block2a_project_bn", 0, 0, {}]]]}, {"class_name": "BatchNormalization", "config": {"name": "block2b_expand_bn", "trainable": false, "dtype": "float32", "axis": [3], "momentum": 0.99, "epsilon": 0.001, "center": true, "scale": true, "beta_initializer": {"class_name": "Zeros", "config": {}}, "gamma_initializer": {"class_name": "Ones", "config": {}}, "moving_mean_initializer": {"class_name": "Zeros", "config": {}}, "moving_variance_initializer": {"class_name": "Ones", "config": {}}, "beta_regularizer": null, "gamma_regularizer": null, "beta_constraint": null, "gamma_constraint": null}, "name": "block2b_expand_bn", "inbound_nodes": [[["block2b_expand_conv", 0, 0, {}]]]}, {"class_name": "Activation", "config": {"name": "block2b_expand_activation", "trainable": false, "dtype": "float32", "activation": "swish"}, "name": "block2b_expand_activation", "inbound_nodes": [[["block2b_expand_bn", 0, 0, {}]]]}, {"class_name": "DepthwiseConv2D", "config": {"name": "block2b_dwconv", "trainable": false, "dtype": "float32", "kernel_size": [3, 3], "strides": [1, 1], "padding": "same", "data_format": "channels_last", "dilation_rate": [1, 1], "groups": 1, "activation": "linear", "use_bias": false, "bias_initializer": {"class_name": "Zeros", "config": {}}, "bias_regularizer": null, "activity_regularizer": null, "bias_constraint": null, "depth_multiplier": 1, "depthwise_initializer": {"class_name": "VarianceScaling", "config": {"scale": 2.0, "mode": "fan_out", "distribution": "truncated_normal", "seed": null}}, "depthwise_regularizer": null, "depthwise_constraint": null}, "name": "block2b_dwconv", "inbound_nodes": [[["block2b_expand_activation", 0, 0, {}]]]}, {"class_name": "BatchNormalization", "config": {"name": "block2b_bn", "trainable": false, "dtype": "float32", "axis": [3], "momentum": 0.99, "epsilon": 0.001, "center": true, "scale": true, "beta_initializer": {"class_name": "Zeros", "config": {}}, "gamma_initializer": {"class_name": "Ones", "config": {}}, "moving_mean_initializer": {"class_name": "Zeros", "config": {}}, "moving_variance_initializer": {"class_name": "Ones", "config": {}}, "beta_regularizer": null, "gamma_regularizer": null, "beta_constraint": null, "gamma_constraint": null}, "name": "block2b_bn", "inbound_nodes": [[["block2b_dwconv", 0, 0, {}]]]}, {"class_name": "Activation", "config": {"name": "block2b_activation", "trainable": false, "dtype": "float32", "activation": "swish"}, "name": "block2b_activation", "inbound_nodes": [[["block2b_bn", 0, 0, {}]]]}, {"class_name": "GlobalAveragePooling2D", "config": {"name": "block2b_se_squeeze", "trainable": false, "dtype": "float32", "data_format": "channels_last"}, "name": "block2b_se_squeeze", "inbound_nodes": [[["block2b_activation", 0, 0, {}]]]}, {"class_name": "Reshape", "config": {"name": "block2b_se_reshape", "trainable": false, "dtype": "float32", "target_shape": [1, 1, 192]}, "name": "block2b_se_reshape", "inbound_nodes": [[["block2b_se_squeeze", 0, 0, {}]]]}, {"class_name": "Conv2D", "config": {"name": "block2b_se_reduce", "trainable": false, "dtype": "float32", "filters": 8, "kernel_size": [1, 1], "strides": [1, 1], "padding": "same", "data_format": "channels_last", "dilation_rate": [1, 1], "groups": 1, "activation": "swish", "use_bias": true, "kernel_initializer": {"class_name": "VarianceScaling", "config": {"scale": 2.0, "mode": "fan_out", "distribution": "truncated_normal", "seed": null}}, "bias_initializer": {"class_name": "Zeros", "config": {}}, "kernel_regularizer": null, "bias_regularizer": null, "activity_regularizer": null, "kernel_constraint": null, "bias_constraint": null}, "name": "block2b_se_reduce", "inbound_nodes": [[["block2b_se_reshape", 0, 0, {}]]]}, {"class_name": "Conv2D", "config": {"name": "block2b_se_expand", "trainable": false, "dtype": "float32", "filters": 192, "kernel_size": [1, 1], "strides": [1, 1], "padding": "same", "data_format": "channels_last", "dilation_rate": [1, 1], "groups": 1, "activation": "sigmoid", "use_bias": true, "kernel_initializer": {"class_name": "VarianceScaling", "config": {"scale": 2.0, "mode": "fan_out", "distribution": "truncated_normal", "seed": null}}, "bias_initializer": {"class_name": "Zeros", "config": {}}, "kernel_regularizer": null, "bias_regularizer": null, "activity_regularizer": null, "kernel_constraint": null, "bias_constraint": null}, "name": "block2b_se_expand", "inbound_nodes": [[["block2b_se_reduce", 0, 0, {}]]]}, {"class_name": "Multiply", "config": {"name": "block2b_se_excite", "trainable": false, "dtype": "float32"}, "name": "block2b_se_excite", "inbound_nodes": [[["block2b_activation", 0, 0, {}], ["block2b_se_expand", 0, 0, {}]]]}, {"class_name": "Conv2D", "config": {"name": "block2b_project_conv", "trainable": false, "dtype": "float32", "filters": 32, "kernel_size": [1, 1], "strides": [1, 1], "padding": "same", "data_format": "channels_last", "dilation_rate": [1, 1], "groups": 1, "activation": "linear", "use_bias": false, "kernel_initializer": {"class_name": "VarianceScaling", "config": {"scale": 2.0, "mode": "fan_out", "distribution": "truncated_normal", "seed": null}}, "bias_initializer": {"class_name": "Zeros", "config": {}}, "kernel_regularizer": null, "bias_regularizer": null, "activity_regularizer": null, "kernel_constraint": null, "bias_constraint": null}, "name": "block2b_project_conv", "inbound_nodes": [[["block2b_se_excite", 0, 0, {}]]]}, {"class_name": "BatchNormalization", "config": {"name": "block2b_project_bn", "trainable": false, "dtype": "float32", "axis": [3], "momentum": 0.99, "epsilon": 0.001, "center": true, "scale": true, "beta_initializer": {"class_name": "Zeros", "config": {}}, "gamma_initializer": {"class_name": "Ones", "config": {}}, "moving_mean_initializer": {"class_name": "Zeros", "config": {}}, "moving_variance_initializer": {"class_name": "Ones", "config": {}}, "beta_regularizer": null, "gamma_regularizer": null, "beta_constraint": null, "gamma_constraint": null}, "name": "block2b_project_bn", "inbound_nodes": [[["block2b_project_conv", 0, 0, {}]]]}, {"class_name": "Dropout", "config": {"name": "block2b_drop", "trainable": false, "dtype": "float32", "rate": 0.018750000000000003, "noise_shape": [null, 1, 1, 1], "seed": null}, "name": "block2b_drop", "inbound_nodes": [[["block2b_project_bn", 0, 0, {}]]]}, {"class_name": "Add", "config": {"name": "block2b_add", "trainable": false, "dtype": "float32"}, "name": "block2b_add", "inbound_nodes": [[["block2b_drop", 0, 0, {}], ["block2a_project_bn", 0, 0, {}]]]}, {"class_name": "Conv2D", "config": {"name": "block2c_expand_conv", "trainable": false, "dtype": "float32", "filters": 192, "kernel_size": [1, 1], "strides": [1, 1], "padding": "same", "data_format": "channels_last", "dilation_rate": [1, 1], "groups": 1, "activation": "linear", "use_bias": false, "kernel_initializer": {"class_name": "VarianceScaling", "config": {"scale": 2.0, "mode": "fan_out", "distribution": "truncated_normal", "seed": null}}, "bias_initializer": {"class_name": "Zeros", "config": {}}, "kernel_regularizer": null, "bias_regularizer": null, "activity_regularizer": null, "kernel_constraint": null, "bias_constraint": null}, "name": "block2c_expand_conv", "inbound_nodes": [[["block2b_add", 0, 0, {}]]]}, {"class_name": "BatchNormalization", "config": {"name": "block2c_expand_bn", "trainable": false, "dtype": "float32", "axis": [3], "momentum": 0.99, "epsilon": 0.001, "center": true, "scale": true, "beta_initializer": {"class_name": "Zeros", "config": {}}, "gamma_initializer": {"class_name": "Ones", "config": {}}, "moving_mean_initializer": {"class_name": "Zeros", "config": {}}, "moving_variance_initializer": {"class_name": "Ones", "config": {}}, "beta_regularizer": null, "gamma_regularizer": null, "beta_constraint": null, "gamma_constraint": null}, "name": "block2c_expand_bn", "inbound_nodes": [[["block2c_expand_conv", 0, 0, {}]]]}, {"class_name": "Activation", "config": {"name": "block2c_expand_activation", "trainable": false, "dtype": "float32", "activation": "swish"}, "name": "block2c_expand_activation", "inbound_nodes": [[["block2c_expand_bn", 0, 0, {}]]]}, {"class_name": "DepthwiseConv2D", "config": {"name": "block2c_dwconv", "trainable": false, "dtype": "float32", "kernel_size": [3, 3], "strides": [1, 1], "padding": "same", "data_format": "channels_last", "dilation_rate": [1, 1], "groups": 1, "activation": "linear", "use_bias": false, "bias_initializer": {"class_name": "Zeros", "config": {}}, "bias_regularizer": null, "activity_regularizer": null, "bias_constraint": null, "depth_multiplier": 1, "depthwise_initializer": {"class_name": "VarianceScaling", "config": {"scale": 2.0, "mode": "fan_out", "distribution": "truncated_normal", "seed": null}}, "depthwise_regularizer": null, "depthwise_constraint": null}, "name": "block2c_dwconv", "inbound_nodes": [[["block2c_expand_activation", 0, 0, {}]]]}, {"class_name": "BatchNormalization", "config": {"name": "block2c_bn", "trainable": false, "dtype": "float32", "axis": [3], "momentum": 0.99, "epsilon": 0.001, "center": true, "scale": true, "beta_initializer": {"class_name": "Zeros", "config": {}}, "gamma_initializer": {"class_name": "Ones", "config": {}}, "moving_mean_initializer": {"class_name": "Zeros", "config": {}}, "moving_variance_initializer": {"class_name": "Ones", "config": {}}, "beta_regularizer": null, "gamma_regularizer": null, "beta_constraint": null, "gamma_constraint": null}, "name": "block2c_bn", "inbound_nodes": [[["block2c_dwconv", 0, 0, {}]]]}, {"class_name": "Activation", "config": {"name": "block2c_activation", "trainable": false, "dtype": "float32", "activation": "swish"}, "name": "block2c_activation", "inbound_nodes": [[["block2c_bn", 0, 0, {}]]]}, {"class_name": "GlobalAveragePooling2D", "config": {"name": "block2c_se_squeeze", "trainable": false, "dtype": "float32", "data_format": "channels_last"}, "name": "block2c_se_squeeze", "inbound_nodes": [[["block2c_activation", 0, 0, {}]]]}, {"class_name": "Reshape", "config": {"name": "block2c_se_reshape", "trainable": false, "dtype": "float32", "target_shape": [1, 1, 192]}, "name": "block2c_se_reshape", "inbound_nodes": [[["block2c_se_squeeze", 0, 0, {}]]]}, {"class_name": "Conv2D", "config": {"name": "block2c_se_reduce", "trainable": false, "dtype": "float32", "filters": 8, "kernel_size": [1, 1], "strides": [1, 1], "padding": "same", "data_format": "channels_last", "dilation_rate": [1, 1], "groups": 1, "activation": "swish", "use_bias": true, "kernel_initializer": {"class_name": "VarianceScaling", "config": {"scale": 2.0, "mode": "fan_out", "distribution": "truncated_normal", "seed": null}}, "bias_initializer": {"class_name": "Zeros", "config": {}}, "kernel_regularizer": null, "bias_regularizer": null, "activity_regularizer": null, "kernel_constraint": null, "bias_constraint": null}, "name": "block2c_se_reduce", "inbound_nodes": [[["block2c_se_reshape", 0, 0, {}]]]}, {"class_name": "Conv2D", "config": {"name": "block2c_se_expand", "trainable": false, "dtype": "float32", "filters": 192, "kernel_size": [1, 1], "strides": [1, 1], "padding": "same", "data_format": "channels_last", "dilation_rate": [1, 1], "groups": 1, "activation": "sigmoid", "use_bias": true, "kernel_initializer": {"class_name": "VarianceScaling", "config": {"scale": 2.0, "mode": "fan_out", "distribution": "truncated_normal", "seed": null}}, "bias_initializer": {"class_name": "Zeros", "config": {}}, "kernel_regularizer": null, "bias_regularizer": null, "activity_regularizer": null, "kernel_constraint": null, "bias_constraint": null}, "name": "block2c_se_expand", "inbound_nodes": [[["block2c_se_reduce", 0, 0, {}]]]}, {"class_name": "Multiply", "config": {"name": "block2c_se_excite", "trainable": false, "dtype": "float32"}, "name": "block2c_se_excite", "inbound_nodes": [[["block2c_activation", 0, 0, {}], ["block2c_se_expand", 0, 0, {}]]]}, {"class_name": "Conv2D", "config": {"name": "block2c_project_conv", "trainable": false, "dtype": "float32", "filters": 32, "kernel_size": [1, 1], "strides": [1, 1], "padding": "same", "data_format": "channels_last", "dilation_rate": [1, 1], "groups": 1, "activation": "linear", "use_bias": false, "kernel_initializer": {"class_name": "VarianceScaling", "config": {"scale": 2.0, "mode": "fan_out", "distribution": "truncated_normal", "seed": null}}, "bias_initializer": {"class_name": "Zeros", "config": {}}, "kernel_regularizer": null, "bias_regularizer": null, "activity_regularizer": null, "kernel_constraint": null, "bias_constraint": null}, "name": "block2c_project_conv", "inbound_nodes": [[["block2c_se_excite", 0, 0, {}]]]}, {"class_name": "BatchNormalization", "config": {"name": "block2c_project_bn", "trainable": false, "dtype": "float32", "axis": [3], "momentum": 0.99, "epsilon": 0.001, "center": true, "scale": true, "beta_initializer": {"class_name": "Zeros", "config": {}}, "gamma_initializer": {"class_name": "Ones", "config": {}}, "moving_mean_initializer": {"class_name": "Zeros", "config": {}}, "moving_variance_initializer": {"class_name": "Ones", "config": {}}, "beta_regularizer": null, "gamma_regularizer": null, "beta_constraint": null, "gamma_constraint": null}, "name": "block2c_project_bn", "inbound_nodes": [[["block2c_project_conv", 0, 0, {}]]]}, {"class_name": "Dropout", "config": {"name": "block2c_drop", "trainable": false, "dtype": "float32", "rate": 0.025, "noise_shape": [null, 1, 1, 1], "seed": null}, "name": "block2c_drop", "inbound_nodes": [[["block2c_project_bn", 0, 0, {}]]]}, {"class_name": "Add", "config": {"name": "block2c_add", "trainable": false, "dtype": "float32"}, "name": "block2c_add", "inbound_nodes": [[["block2c_drop", 0, 0, {}], ["block2b_add", 0, 0, {}]]]}, {"class_name": "Conv2D", "config": {"name": "block2d_expand_conv", "trainable": false, "dtype": "float32", "filters": 192, "kernel_size": [1, 1], "strides": [1, 1], "padding": "same", "data_format": "channels_last", "dilation_rate": [1, 1], "groups": 1, "activation": "linear", "use_bias": false, "kernel_initializer": {"class_name": "VarianceScaling", "config": {"scale": 2.0, "mode": "fan_out", "distribution": "truncated_normal", "seed": null}}, "bias_initializer": {"class_name": "Zeros", "config": {}}, "kernel_regularizer": null, "bias_regularizer": null, "activity_regularizer": null, "kernel_constraint": null, "bias_constraint": null}, "name": "block2d_expand_conv", "inbound_nodes": [[["block2c_add", 0, 0, {}]]]}, {"class_name": "BatchNormalization", "config": {"name": "block2d_expand_bn", "trainable": false, "dtype": "float32", "axis": [3], "momentum": 0.99, "epsilon": 0.001, "center": true, "scale": true, "beta_initializer": {"class_name": "Zeros", "config": {}}, "gamma_initializer": {"class_name": "Ones", "config": {}}, "moving_mean_initializer": {"class_name": "Zeros", "config": {}}, "moving_variance_initializer": {"class_name": "Ones", "config": {}}, "beta_regularizer": null, "gamma_regularizer": null, "beta_constraint": null, "gamma_constraint": null}, "name": "block2d_expand_bn", "inbound_nodes": [[["block2d_expand_conv", 0, 0, {}]]]}, {"class_name": "Activation", "config": {"name": "block2d_expand_activation", "trainable": false, "dtype": "float32", "activation": "swish"}, "name": "block2d_expand_activation", "inbound_nodes": [[["block2d_expand_bn", 0, 0, {}]]]}, {"class_name": "DepthwiseConv2D", "config": {"name": "block2d_dwconv", "trainable": false, "dtype": "float32", "kernel_size": [3, 3], "strides": [1, 1], "padding": "same", "data_format": "channels_last", "dilation_rate": [1, 1], "groups": 1, "activation": "linear", "use_bias": false, "bias_initializer": {"class_name": "Zeros", "config": {}}, "bias_regularizer": null, "activity_regularizer": null, "bias_constraint": null, "depth_multiplier": 1, "depthwise_initializer": {"class_name": "VarianceScaling", "config": {"scale": 2.0, "mode": "fan_out", "distribution": "truncated_normal", "seed": null}}, "depthwise_regularizer": null, "depthwise_constraint": null}, "name": "block2d_dwconv", "inbound_nodes": [[["block2d_expand_activation", 0, 0, {}]]]}, {"class_name": "BatchNormalization", "config": {"name": "block2d_bn", "trainable": false, "dtype": "float32", "axis": [3], "momentum": 0.99, "epsilon": 0.001, "center": true, "scale": true, "beta_initializer": {"class_name": "Zeros", "config": {}}, "gamma_initializer": {"class_name": "Ones", "config": {}}, "moving_mean_initializer": {"class_name": "Zeros", "config": {}}, "moving_variance_initializer": {"class_name": "Ones", "config": {}}, "beta_regularizer": null, "gamma_regularizer": null, "beta_constraint": null, "gamma_constraint": null}, "name": "block2d_bn", "inbound_nodes": [[["block2d_dwconv", 0, 0, {}]]]}, {"class_name": "Activation", "config": {"name": "block2d_activation", "trainable": false, "dtype": "float32", "activation": "swish"}, "name": "block2d_activation", "inbound_nodes": [[["block2d_bn", 0, 0, {}]]]}, {"class_name": "GlobalAveragePooling2D", "config": {"name": "block2d_se_squeeze", "trainable": false, "dtype": "float32", "data_format": "channels_last"}, "name": "block2d_se_squeeze", "inbound_nodes": [[["block2d_activation", 0, 0, {}]]]}, {"class_name": "Reshape", "config": {"name": "block2d_se_reshape", "trainable": false, "dtype": "float32", "target_shape": [1, 1, 192]}, "name": "block2d_se_reshape", "inbound_nodes": [[["block2d_se_squeeze", 0, 0, {}]]]}, {"class_name": "Conv2D", "config": {"name": "block2d_se_reduce", "trainable": false, "dtype": "float32", "filters": 8, "kernel_size": [1, 1], "strides": [1, 1], "padding": "same", "data_format": "channels_last", "dilation_rate": [1, 1], "groups": 1, "activation": "swish", "use_bias": true, "kernel_initializer": {"class_name": "VarianceScaling", "config": {"scale": 2.0, "mode": "fan_out", "distribution": "truncated_normal", "seed": null}}, "bias_initializer": {"class_name": "Zeros", "config": {}}, "kernel_regularizer": null, "bias_regularizer": null, "activity_regularizer": null, "kernel_constraint": null, "bias_constraint": null}, "name": "block2d_se_reduce", "inbound_nodes": [[["block2d_se_reshape", 0, 0, {}]]]}, {"class_name": "Conv2D", "config": {"name": "block2d_se_expand", "trainable": false, "dtype": "float32", "filters": 192, "kernel_size": [1, 1], "strides": [1, 1], "padding": "same", "data_format": "channels_last", "dilation_rate": [1, 1], "groups": 1, "activation": "sigmoid", "use_bias": true, "kernel_initializer": {"class_name": "VarianceScaling", "config": {"scale": 2.0, "mode": "fan_out", "distribution": "truncated_normal", "seed": null}}, "bias_initializer": {"class_name": "Zeros", "config": {}}, "kernel_regularizer": null, "bias_regularizer": null, "activity_regularizer": null, "kernel_constraint": null, "bias_constraint": null}, "name": "block2d_se_expand", "inbound_nodes": [[["block2d_se_reduce", 0, 0, {}]]]}, {"class_name": "Multiply", "config": {"name": "block2d_se_excite", "trainable": false, "dtype": "float32"}, "name": "block2d_se_excite", "inbound_nodes": [[["block2d_activation", 0, 0, {}], ["block2d_se_expand", 0, 0, {}]]]}, {"class_name": "Conv2D", "config": {"name": "block2d_project_conv", "trainable": false, "dtype": "float32", "filters": 32, "kernel_size": [1, 1], "strides": [1, 1], "padding": "same", "data_format": "channels_last", "dilation_rate": [1, 1], "groups": 1, "activation": "linear", "use_bias": false, "kernel_initializer": {"class_name": "VarianceScaling", "config": {"scale": 2.0, "mode": "fan_out", "distribution": "truncated_normal", "seed": null}}, "bias_initializer": {"class_name": "Zeros", "config": {}}, "kernel_regularizer": null, "bias_regularizer": null, "activity_regularizer": null, "kernel_constraint": null, "bias_constraint": null}, "name": "block2d_project_conv", "inbound_nodes": [[["block2d_se_excite", 0, 0, {}]]]}, {"class_name": "BatchNormalization", "config": {"name": "block2d_project_bn", "trainable": false, "dtype": "float32", "axis": [3], "momentum": 0.99, "epsilon": 0.001, "center": true, "scale": true, "beta_initializer": {"class_name": "Zeros", "config": {}}, "gamma_initializer": {"class_name": "Ones", "config": {}}, "moving_mean_initializer": {"class_name": "Zeros", "config": {}}, "moving_variance_initializer": {"class_name": "Ones", "config": {}}, "beta_regularizer": null, "gamma_regularizer": null, "beta_constraint": null, "gamma_constraint": null}, "name": "block2d_project_bn", "inbound_nodes": [[["block2d_project_conv", 0, 0, {}]]]}, {"class_name": "Dropout", "config": {"name": "block2d_drop", "trainable": false, "dtype": "float32", "rate": 0.03125, "noise_shape": [null, 1, 1, 1], "seed": null}, "name": "block2d_drop", "inbound_nodes": [[["block2d_project_bn", 0, 0, {}]]]}, {"class_name": "Add", "config": {"name": "block2d_add", "trainable": false, "dtype": "float32"}, "name": "block2d_add", "inbound_nodes": [[["block2d_drop", 0, 0, {}], ["block2c_add", 0, 0, {}]]]}, {"class_name": "Conv2D", "config": {"name": "block3a_expand_conv", "trainable": false, "dtype": "float32", "filters": 192, "kernel_size": [1, 1], "strides": [1, 1], "padding": "same", "data_format": "channels_last", "dilation_rate": [1, 1], "groups": 1, "activation": "linear", "use_bias": false, "kernel_initializer": {"class_name": "VarianceScaling", "config": {"scale": 2.0, "mode": "fan_out", "distribution": "truncated_normal", "seed": null}}, "bias_initializer": {"class_name": "Zeros", "config": {}}, "kernel_regularizer": null, "bias_regularizer": null, "activity_regularizer": null, "kernel_constraint": null, "bias_constraint": null}, "name": "block3a_expand_conv", "inbound_nodes": [[["block2d_add", 0, 0, {}]]]}, {"class_name": "BatchNormalization", "config": {"name": "block3a_expand_bn", "trainable": false, "dtype": "float32", "axis": [3], "momentum": 0.99, "epsilon": 0.001, "center": true, "scale": true, "beta_initializer": {"class_name": "Zeros", "config": {}}, "gamma_initializer": {"class_name": "Ones", "config": {}}, "moving_mean_initializer": {"class_name": "Zeros", "config": {}}, "moving_variance_initializer": {"class_name": "Ones", "config": {}}, "beta_regularizer": null, "gamma_regularizer": null, "beta_constraint": null, "gamma_constraint": null}, "name": "block3a_expand_bn", "inbound_nodes": [[["block3a_expand_conv", 0, 0, {}]]]}, {"class_name": "Activation", "config": {"name": "block3a_expand_activation", "trainable": false, "dtype": "float32", "activation": "swish"}, "name": "block3a_expand_activation", "inbound_nodes": [[["block3a_expand_bn", 0, 0, {}]]]}, {"class_name": "ZeroPadding2D", "config": {"name": "block3a_dwconv_pad", "trainable": false, "dtype": "float32", "padding": [[2, 2], [2, 2]], "data_format": "channels_last"}, "name": "block3a_dwconv_pad", "inbound_nodes": [[["block3a_expand_activation", 0, 0, {}]]]}, {"class_name": "DepthwiseConv2D", "config": {"name": "block3a_dwconv", "trainable": false, "dtype": "float32", "kernel_size": [5, 5], "strides": [2, 2], "padding": "valid", "data_format": "channels_last", "dilation_rate": [1, 1], "groups": 1, "activation": "linear", "use_bias": false, "bias_initializer": {"class_name": "Zeros", "config": {}}, "bias_regularizer": null, "activity_regularizer": null, "bias_constraint": null, "depth_multiplier": 1, "depthwise_initializer": {"class_name": "VarianceScaling", "config": {"scale": 2.0, "mode": "fan_out", "distribution": "truncated_normal", "seed": null}}, "depthwise_regularizer": null, "depthwise_constraint": null}, "name": "block3a_dwconv", "inbound_nodes": [[["block3a_dwconv_pad", 0, 0, {}]]]}, {"class_name": "BatchNormalization", "config": {"name": "block3a_bn", "trainable": false, "dtype": "float32", "axis": [3], "momentum": 0.99, "epsilon": 0.001, "center": true, "scale": true, "beta_initializer": {"class_name": "Zeros", "config": {}}, "gamma_initializer": {"class_name": "Ones", "config": {}}, "moving_mean_initializer": {"class_name": "Zeros", "config": {}}, "moving_variance_initializer": {"class_name": "Ones", "config": {}}, "beta_regularizer": null, "gamma_regularizer": null, "beta_constraint": null, "gamma_constraint": null}, "name": "block3a_bn", "inbound_nodes": [[["block3a_dwconv", 0, 0, {}]]]}, {"class_name": "Activation", "config": {"name": "block3a_activation", "trainable": false, "dtype": "float32", "activation": "swish"}, "name": "block3a_activation", "inbound_nodes": [[["block3a_bn", 0, 0, {}]]]}, {"class_name": "GlobalAveragePooling2D", "config": {"name": "block3a_se_squeeze", "trainable": false, "dtype": "float32", "data_format": "channels_last"}, "name": "block3a_se_squeeze", "inbound_nodes": [[["block3a_activation", 0, 0, {}]]]}, {"class_name": "Reshape", "config": {"name": "block3a_se_reshape", "trainable": false, "dtype": "float32", "target_shape": [1, 1, 192]}, "name": "block3a_se_reshape", "inbound_nodes": [[["block3a_se_squeeze", 0, 0, {}]]]}, {"class_name": "Conv2D", "config": {"name": "block3a_se_reduce", "trainable": false, "dtype": "float32", "filters": 8, "kernel_size": [1, 1], "strides": [1, 1], "padding": "same", "data_format": "channels_last", "dilation_rate": [1, 1], "groups": 1, "activation": "swish", "use_bias": true, "kernel_initializer": {"class_name": "VarianceScaling", "config": {"scale": 2.0, "mode": "fan_out", "distribution": "truncated_normal", "seed": null}}, "bias_initializer": {"class_name": "Zeros", "config": {}}, "kernel_regularizer": null, "bias_regularizer": null, "activity_regularizer": null, "kernel_constraint": null, "bias_constraint": null}, "name": "block3a_se_reduce", "inbound_nodes": [[["block3a_se_reshape", 0, 0, {}]]]}, {"class_name": "Conv2D", "config": {"name": "block3a_se_expand", "trainable": false, "dtype": "float32", "filters": 192, "kernel_size": [1, 1], "strides": [1, 1], "padding": "same", "data_format": "channels_last", "dilation_rate": [1, 1], "groups": 1, "activation": "sigmoid", "use_bias": true, "kernel_initializer": {"class_name": "VarianceScaling", "config": {"scale": 2.0, "mode": "fan_out", "distribution": "truncated_normal", "seed": null}}, "bias_initializer": {"class_name": "Zeros", "config": {}}, "kernel_regularizer": null, "bias_regularizer": null, "activity_regularizer": null, "kernel_constraint": null, "bias_constraint": null}, "name": "block3a_se_expand", "inbound_nodes": [[["block3a_se_reduce", 0, 0, {}]]]}, {"class_name": "Multiply", "config": {"name": "block3a_se_excite", "trainable": false, "dtype": "float32"}, "name": "block3a_se_excite", "inbound_nodes": [[["block3a_activation", 0, 0, {}], ["block3a_se_expand", 0, 0, {}]]]}, {"class_name": "Conv2D", "config": {"name": "block3a_project_conv", "trainable": false, "dtype": "float32", "filters": 56, "kernel_size": [1, 1], "strides": [1, 1], "padding": "same", "data_format": "channels_last", "dilation_rate": [1, 1], "groups": 1, "activation": "linear", "use_bias": false, "kernel_initializer": {"class_name": "VarianceScaling", "config": {"scale": 2.0, "mode": "fan_out", "distribution": "truncated_normal", "seed": null}}, "bias_initializer": {"class_name": "Zeros", "config": {}}, "kernel_regularizer": null, "bias_regularizer": null, "activity_regularizer": null, "kernel_constraint": null, "bias_constraint": null}, "name": "block3a_project_conv", "inbound_nodes": [[["block3a_se_excite", 0, 0, {}]]]}, {"class_name": "BatchNormalization", "config": {"name": "block3a_project_bn", "trainable": false, "dtype": "float32", "axis": [3], "momentum": 0.99, "epsilon": 0.001, "center": true, "scale": true, "beta_initializer": {"class_name": "Zeros", "config": {}}, "gamma_initializer": {"class_name": "Ones", "config": {}}, "moving_mean_initializer": {"class_name": "Zeros", "config": {}}, "moving_variance_initializer": {"class_name": "Ones", "config": {}}, "beta_regularizer": null, "gamma_regularizer": null, "beta_constraint": null, "gamma_constraint": null}, "name": "block3a_project_bn", "inbound_nodes": [[["block3a_project_conv", 0, 0, {}]]]}, {"class_name": "Conv2D", "config": {"name": "block3b_expand_conv", "trainable": false, "dtype": "float32", "filters": 336, "kernel_size": [1, 1], "strides": [1, 1], "padding": "same", "data_format": "channels_last", "dilation_rate": [1, 1], "groups": 1, "activation": "linear", "use_bias": false, "kernel_initializer": {"class_name": "VarianceScaling", "config": {"scale": 2.0, "mode": "fan_out", "distribution": "truncated_normal", "seed": null}}, "bias_initializer": {"class_name": "Zeros", "config": {}}, "kernel_regularizer": null, "bias_regularizer": null, "activity_regularizer": null, "kernel_constraint": null, "bias_constraint": null}, "name": "block3b_expand_conv", "inbound_nodes": [[["block3a_project_bn", 0, 0, {}]]]}, {"class_name": "BatchNormalization", "config": {"name": "block3b_expand_bn", "trainable": false, "dtype": "float32", "axis": [3], "momentum": 0.99, "epsilon": 0.001, "center": true, "scale": true, "beta_initializer": {"class_name": "Zeros", "config": {}}, "gamma_initializer": {"class_name": "Ones", "config": {}}, "moving_mean_initializer": {"class_name": "Zeros", "config": {}}, "moving_variance_initializer": {"class_name": "Ones", "config": {}}, "beta_regularizer": null, "gamma_regularizer": null, "beta_constraint": null, "gamma_constraint": null}, "name": "block3b_expand_bn", "inbound_nodes": [[["block3b_expand_conv", 0, 0, {}]]]}, {"class_name": "Activation", "config": {"name": "block3b_expand_activation", "trainable": false, "dtype": "float32", "activation": "swish"}, "name": "block3b_expand_activation", "inbound_nodes": [[["block3b_expand_bn", 0, 0, {}]]]}, {"class_name": "DepthwiseConv2D", "config": {"name": "block3b_dwconv", "trainable": false, "dtype": "float32", "kernel_size": [5, 5], "strides": [1, 1], "padding": "same", "data_format": "channels_last", "dilation_rate": [1, 1], "groups": 1, "activation": "linear", "use_bias": false, "bias_initializer": {"class_name": "Zeros", "config": {}}, "bias_regularizer": null, "activity_regularizer": null, "bias_constraint": null, "depth_multiplier": 1, "depthwise_initializer": {"class_name": "VarianceScaling", "config": {"scale": 2.0, "mode": "fan_out", "distribution": "truncated_normal", "seed": null}}, "depthwise_regularizer": null, "depthwise_constraint": null}, "name": "block3b_dwconv", "inbound_nodes": [[["block3b_expand_activation", 0, 0, {}]]]}, {"class_name": "BatchNormalization", "config": {"name": "block3b_bn", "trainable": false, "dtype": "float32", "axis": [3], "momentum": 0.99, "epsilon": 0.001, "center": true, "scale": true, "beta_initializer": {"class_name": "Zeros", "config": {}}, "gamma_initializer": {"class_name": "Ones", "config": {}}, "moving_mean_initializer": {"class_name": "Zeros", "config": {}}, "moving_variance_initializer": {"class_name": "Ones", "config": {}}, "beta_regularizer": null, "gamma_regularizer": null, "beta_constraint": null, "gamma_constraint": null}, "name": "block3b_bn", "inbound_nodes": [[["block3b_dwconv", 0, 0, {}]]]}, {"class_name": "Activation", "config": {"name": "block3b_activation", "trainable": false, "dtype": "float32", "activation": "swish"}, "name": "block3b_activation", "inbound_nodes": [[["block3b_bn", 0, 0, {}]]]}, {"class_name": "GlobalAveragePooling2D", "config": {"name": "block3b_se_squeeze", "trainable": false, "dtype": "float32", "data_format": "channels_last"}, "name": "block3b_se_squeeze", "inbound_nodes": [[["block3b_activation", 0, 0, {}]]]}, {"class_name": "Reshape", "config": {"name": "block3b_se_reshape", "trainable": false, "dtype": "float32", "target_shape": [1, 1, 336]}, "name": "block3b_se_reshape", "inbound_nodes": [[["block3b_se_squeeze", 0, 0, {}]]]}, {"class_name": "Conv2D", "config": {"name": "block3b_se_reduce", "trainable": false, "dtype": "float32", "filters": 14, "kernel_size": [1, 1], "strides": [1, 1], "padding": "same", "data_format": "channels_last", "dilation_rate": [1, 1], "groups": 1, "activation": "swish", "use_bias": true, "kernel_initializer": {"class_name": "VarianceScaling", "config": {"scale": 2.0, "mode": "fan_out", "distribution": "truncated_normal", "seed": null}}, "bias_initializer": {"class_name": "Zeros", "config": {}}, "kernel_regularizer": null, "bias_regularizer": null, "activity_regularizer": null, "kernel_constraint": null, "bias_constraint": null}, "name": "block3b_se_reduce", "inbound_nodes": [[["block3b_se_reshape", 0, 0, {}]]]}, {"class_name": "Conv2D", "config": {"name": "block3b_se_expand", "trainable": false, "dtype": "float32", "filters": 336, "kernel_size": [1, 1], "strides": [1, 1], "padding": "same", "data_format": "channels_last", "dilation_rate": [1, 1], "groups": 1, "activation": "sigmoid", "use_bias": true, "kernel_initializer": {"class_name": "VarianceScaling", "config": {"scale": 2.0, "mode": "fan_out", "distribution": "truncated_normal", "seed": null}}, "bias_initializer": {"class_name": "Zeros", "config": {}}, "kernel_regularizer": null, "bias_regularizer": null, "activity_regularizer": null, "kernel_constraint": null, "bias_constraint": null}, "name": "block3b_se_expand", "inbound_nodes": [[["block3b_se_reduce", 0, 0, {}]]]}, {"class_name": "Multiply", "config": {"name": "block3b_se_excite", "trainable": false, "dtype": "float32"}, "name": "block3b_se_excite", "inbound_nodes": [[["block3b_activation", 0, 0, {}], ["block3b_se_expand", 0, 0, {}]]]}, {"class_name": "Conv2D", "config": {"name": "block3b_project_conv", "trainable": false, "dtype": "float32", "filters": 56, "kernel_size": [1, 1], "strides": [1, 1], "padding": "same", "data_format": "channels_last", "dilation_rate": [1, 1], "groups": 1, "activation": "linear", "use_bias": false, "kernel_initializer": {"class_name": "VarianceScaling", "config": {"scale": 2.0, "mode": "fan_out", "distribution": "truncated_normal", "seed": null}}, "bias_initializer": {"class_name": "Zeros", "config": {}}, "kernel_regularizer": null, "bias_regularizer": null, "activity_regularizer": null, "kernel_constraint": null, "bias_constraint": null}, "name": "block3b_project_conv", "inbound_nodes": [[["block3b_se_excite", 0, 0, {}]]]}, {"class_name": "BatchNormalization", "config": {"name": "block3b_project_bn", "trainable": false, "dtype": "float32", "axis": [3], "momentum": 0.99, "epsilon": 0.001, "center": true, "scale": true, "beta_initializer": {"class_name": "Zeros", "config": {}}, "gamma_initializer": {"class_name": "Ones", "config": {}}, "moving_mean_initializer": {"class_name": "Zeros", "config": {}}, "moving_variance_initializer": {"class_name": "Ones", "config": {}}, "beta_regularizer": null, "gamma_regularizer": null, "beta_constraint": null, "gamma_constraint": null}, "name": "block3b_project_bn", "inbound_nodes": [[["block3b_project_conv", 0, 0, {}]]]}, {"class_name": "Dropout", "config": {"name": "block3b_drop", "trainable": false, "dtype": "float32", "rate": 0.043750000000000004, "noise_shape": [null, 1, 1, 1], "seed": null}, "name": "block3b_drop", "inbound_nodes": [[["block3b_project_bn", 0, 0, {}]]]}, {"class_name": "Add", "config": {"name": "block3b_add", "trainable": false, "dtype": "float32"}, "name": "block3b_add", "inbound_nodes": [[["block3b_drop", 0, 0, {}], ["block3a_project_bn", 0, 0, {}]]]}, {"class_name": "Conv2D", "config": {"name": "block3c_expand_conv", "trainable": false, "dtype": "float32", "filters": 336, "kernel_size": [1, 1], "strides": [1, 1], "padding": "same", "data_format": "channels_last", "dilation_rate": [1, 1], "groups": 1, "activation": "linear", "use_bias": false, "kernel_initializer": {"class_name": "VarianceScaling", "config": {"scale": 2.0, "mode": "fan_out", "distribution": "truncated_normal", "seed": null}}, "bias_initializer": {"class_name": "Zeros", "config": {}}, "kernel_regularizer": null, "bias_regularizer": null, "activity_regularizer": null, "kernel_constraint": null, "bias_constraint": null}, "name": "block3c_expand_conv", "inbound_nodes": [[["block3b_add", 0, 0, {}]]]}, {"class_name": "BatchNormalization", "config": {"name": "block3c_expand_bn", "trainable": false, "dtype": "float32", "axis": [3], "momentum": 0.99, "epsilon": 0.001, "center": true, "scale": true, "beta_initializer": {"class_name": "Zeros", "config": {}}, "gamma_initializer": {"class_name": "Ones", "config": {}}, "moving_mean_initializer": {"class_name": "Zeros", "config": {}}, "moving_variance_initializer": {"class_name": "Ones", "config": {}}, "beta_regularizer": null, "gamma_regularizer": null, "beta_constraint": null, "gamma_constraint": null}, "name": "block3c_expand_bn", "inbound_nodes": [[["block3c_expand_conv", 0, 0, {}]]]}, {"class_name": "Activation", "config": {"name": "block3c_expand_activation", "trainable": false, "dtype": "float32", "activation": "swish"}, "name": "block3c_expand_activation", "inbound_nodes": [[["block3c_expand_bn", 0, 0, {}]]]}, {"class_name": "DepthwiseConv2D", "config": {"name": "block3c_dwconv", "trainable": false, "dtype": "float32", "kernel_size": [5, 5], "strides": [1, 1], "padding": "same", "data_format": "channels_last", "dilation_rate": [1, 1], "groups": 1, "activation": "linear", "use_bias": false, "bias_initializer": {"class_name": "Zeros", "config": {}}, "bias_regularizer": null, "activity_regularizer": null, "bias_constraint": null, "depth_multiplier": 1, "depthwise_initializer": {"class_name": "VarianceScaling", "config": {"scale": 2.0, "mode": "fan_out", "distribution": "truncated_normal", "seed": null}}, "depthwise_regularizer": null, "depthwise_constraint": null}, "name": "block3c_dwconv", "inbound_nodes": [[["block3c_expand_activation", 0, 0, {}]]]}, {"class_name": "BatchNormalization", "config": {"name": "block3c_bn", "trainable": false, "dtype": "float32", "axis": [3], "momentum": 0.99, "epsilon": 0.001, "center": true, "scale": true, "beta_initializer": {"class_name": "Zeros", "config": {}}, "gamma_initializer": {"class_name": "Ones", "config": {}}, "moving_mean_initializer": {"class_name": "Zeros", "config": {}}, "moving_variance_initializer": {"class_name": "Ones", "config": {}}, "beta_regularizer": null, "gamma_regularizer": null, "beta_constraint": null, "gamma_constraint": null}, "name": "block3c_bn", "inbound_nodes": [[["block3c_dwconv", 0, 0, {}]]]}, {"class_name": "Activation", "config": {"name": "block3c_activation", "trainable": false, "dtype": "float32", "activation": "swish"}, "name": "block3c_activation", "inbound_nodes": [[["block3c_bn", 0, 0, {}]]]}, {"class_name": "GlobalAveragePooling2D", "config": {"name": "block3c_se_squeeze", "trainable": false, "dtype": "float32", "data_format": "channels_last"}, "name": "block3c_se_squeeze", "inbound_nodes": [[["block3c_activation", 0, 0, {}]]]}, {"class_name": "Reshape", "config": {"name": "block3c_se_reshape", "trainable": false, "dtype": "float32", "target_shape": [1, 1, 336]}, "name": "block3c_se_reshape", "inbound_nodes": [[["block3c_se_squeeze", 0, 0, {}]]]}, {"class_name": "Conv2D", "config": {"name": "block3c_se_reduce", "trainable": false, "dtype": "float32", "filters": 14, "kernel_size": [1, 1], "strides": [1, 1], "padding": "same", "data_format": "channels_last", "dilation_rate": [1, 1], "groups": 1, "activation": "swish", "use_bias": true, "kernel_initializer": {"class_name": "VarianceScaling", "config": {"scale": 2.0, "mode": "fan_out", "distribution": "truncated_normal", "seed": null}}, "bias_initializer": {"class_name": "Zeros", "config": {}}, "kernel_regularizer": null, "bias_regularizer": null, "activity_regularizer": null, "kernel_constraint": null, "bias_constraint": null}, "name": "block3c_se_reduce", "inbound_nodes": [[["block3c_se_reshape", 0, 0, {}]]]}, {"class_name": "Conv2D", "config": {"name": "block3c_se_expand", "trainable": false, "dtype": "float32", "filters": 336, "kernel_size": [1, 1], "strides": [1, 1], "padding": "same", "data_format": "channels_last", "dilation_rate": [1, 1], "groups": 1, "activation": "sigmoid", "use_bias": true, "kernel_initializer": {"class_name": "VarianceScaling", "config": {"scale": 2.0, "mode": "fan_out", "distribution": "truncated_normal", "seed": null}}, "bias_initializer": {"class_name": "Zeros", "config": {}}, "kernel_regularizer": null, "bias_regularizer": null, "activity_regularizer": null, "kernel_constraint": null, "bias_constraint": null}, "name": "block3c_se_expand", "inbound_nodes": [[["block3c_se_reduce", 0, 0, {}]]]}, {"class_name": "Multiply", "config": {"name": "block3c_se_excite", "trainable": false, "dtype": "float32"}, "name": "block3c_se_excite", "inbound_nodes": [[["block3c_activation", 0, 0, {}], ["block3c_se_expand", 0, 0, {}]]]}, {"class_name": "Conv2D", "config": {"name": "block3c_project_conv", "trainable": false, "dtype": "float32", "filters": 56, "kernel_size": [1, 1], "strides": [1, 1], "padding": "same", "data_format": "channels_last", "dilation_rate": [1, 1], "groups": 1, "activation": "linear", "use_bias": false, "kernel_initializer": {"class_name": "VarianceScaling", "config": {"scale": 2.0, "mode": "fan_out", "distribution": "truncated_normal", "seed": null}}, "bias_initializer": {"class_name": "Zeros", "config": {}}, "kernel_regularizer": null, "bias_regularizer": null, "activity_regularizer": null, "kernel_constraint": null, "bias_constraint": null}, "name": "block3c_project_conv", "inbound_nodes": [[["block3c_se_excite", 0, 0, {}]]]}, {"class_name": "BatchNormalization", "config": {"name": "block3c_project_bn", "trainable": false, "dtype": "float32", "axis": [3], "momentum": 0.99, "epsilon": 0.001, "center": true, "scale": true, "beta_initializer": {"class_name": "Zeros", "config": {}}, "gamma_initializer": {"class_name": "Ones", "config": {}}, "moving_mean_initializer": {"class_name": "Zeros", "config": {}}, "moving_variance_initializer": {"class_name": "Ones", "config": {}}, "beta_regularizer": null, "gamma_regularizer": null, "beta_constraint": null, "gamma_constraint": null}, "name": "block3c_project_bn", "inbound_nodes": [[["block3c_project_conv", 0, 0, {}]]]}, {"class_name": "Dropout", "config": {"name": "block3c_drop", "trainable": false, "dtype": "float32", "rate": 0.05, "noise_shape": [null, 1, 1, 1], "seed": null}, "name": "block3c_drop", "inbound_nodes": [[["block3c_project_bn", 0, 0, {}]]]}, {"class_name": "Add", "config": {"name": "block3c_add", "trainable": false, "dtype": "float32"}, "name": "block3c_add", "inbound_nodes": [[["block3c_drop", 0, 0, {}], ["block3b_add", 0, 0, {}]]]}, {"class_name": "Conv2D", "config": {"name": "block3d_expand_conv", "trainable": false, "dtype": "float32", "filters": 336, "kernel_size": [1, 1], "strides": [1, 1], "padding": "same", "data_format": "channels_last", "dilation_rate": [1, 1], "groups": 1, "activation": "linear", "use_bias": false, "kernel_initializer": {"class_name": "VarianceScaling", "config": {"scale": 2.0, "mode": "fan_out", "distribution": "truncated_normal", "seed": null}}, "bias_initializer": {"class_name": "Zeros", "config": {}}, "kernel_regularizer": null, "bias_regularizer": null, "activity_regularizer": null, "kernel_constraint": null, "bias_constraint": null}, "name": "block3d_expand_conv", "inbound_nodes": [[["block3c_add", 0, 0, {}]]]}, {"class_name": "BatchNormalization", "config": {"name": "block3d_expand_bn", "trainable": false, "dtype": "float32", "axis": [3], "momentum": 0.99, "epsilon": 0.001, "center": true, "scale": true, "beta_initializer": {"class_name": "Zeros", "config": {}}, "gamma_initializer": {"class_name": "Ones", "config": {}}, "moving_mean_initializer": {"class_name": "Zeros", "config": {}}, "moving_variance_initializer": {"class_name": "Ones", "config": {}}, "beta_regularizer": null, "gamma_regularizer": null, "beta_constraint": null, "gamma_constraint": null}, "name": "block3d_expand_bn", "inbound_nodes": [[["block3d_expand_conv", 0, 0, {}]]]}, {"class_name": "Activation", "config": {"name": "block3d_expand_activation", "trainable": false, "dtype": "float32", "activation": "swish"}, "name": "block3d_expand_activation", "inbound_nodes": [[["block3d_expand_bn", 0, 0, {}]]]}, {"class_name": "DepthwiseConv2D", "config": {"name": "block3d_dwconv", "trainable": false, "dtype": "float32", "kernel_size": [5, 5], "strides": [1, 1], "padding": "same", "data_format": "channels_last", "dilation_rate": [1, 1], "groups": 1, "activation": "linear", "use_bias": false, "bias_initializer": {"class_name": "Zeros", "config": {}}, "bias_regularizer": null, "activity_regularizer": null, "bias_constraint": null, "depth_multiplier": 1, "depthwise_initializer": {"class_name": "VarianceScaling", "config": {"scale": 2.0, "mode": "fan_out", "distribution": "truncated_normal", "seed": null}}, "depthwise_regularizer": null, "depthwise_constraint": null}, "name": "block3d_dwconv", "inbound_nodes": [[["block3d_expand_activation", 0, 0, {}]]]}, {"class_name": "BatchNormalization", "config": {"name": "block3d_bn", "trainable": false, "dtype": "float32", "axis": [3], "momentum": 0.99, "epsilon": 0.001, "center": true, "scale": true, "beta_initializer": {"class_name": "Zeros", "config": {}}, "gamma_initializer": {"class_name": "Ones", "config": {}}, "moving_mean_initializer": {"class_name": "Zeros", "config": {}}, "moving_variance_initializer": {"class_name": "Ones", "config": {}}, "beta_regularizer": null, "gamma_regularizer": null, "beta_constraint": null, "gamma_constraint": null}, "name": "block3d_bn", "inbound_nodes": [[["block3d_dwconv", 0, 0, {}]]]}, {"class_name": "Activation", "config": {"name": "block3d_activation", "trainable": false, "dtype": "float32", "activation": "swish"}, "name": "block3d_activation", "inbound_nodes": [[["block3d_bn", 0, 0, {}]]]}, {"class_name": "GlobalAveragePooling2D", "config": {"name": "block3d_se_squeeze", "trainable": false, "dtype": "float32", "data_format": "channels_last"}, "name": "block3d_se_squeeze", "inbound_nodes": [[["block3d_activation", 0, 0, {}]]]}, {"class_name": "Reshape", "config": {"name": "block3d_se_reshape", "trainable": false, "dtype": "float32", "target_shape": [1, 1, 336]}, "name": "block3d_se_reshape", "inbound_nodes": [[["block3d_se_squeeze", 0, 0, {}]]]}, {"class_name": "Conv2D", "config": {"name": "block3d_se_reduce", "trainable": false, "dtype": "float32", "filters": 14, "kernel_size": [1, 1], "strides": [1, 1], "padding": "same", "data_format": "channels_last", "dilation_rate": [1, 1], "groups": 1, "activation": "swish", "use_bias": true, "kernel_initializer": {"class_name": "VarianceScaling", "config": {"scale": 2.0, "mode": "fan_out", "distribution": "truncated_normal", "seed": null}}, "bias_initializer": {"class_name": "Zeros", "config": {}}, "kernel_regularizer": null, "bias_regularizer": null, "activity_regularizer": null, "kernel_constraint": null, "bias_constraint": null}, "name": "block3d_se_reduce", "inbound_nodes": [[["block3d_se_reshape", 0, 0, {}]]]}, {"class_name": "Conv2D", "config": {"name": "block3d_se_expand", "trainable": false, "dtype": "float32", "filters": 336, "kernel_size": [1, 1], "strides": [1, 1], "padding": "same", "data_format": "channels_last", "dilation_rate": [1, 1], "groups": 1, "activation": "sigmoid", "use_bias": true, "kernel_initializer": {"class_name": "VarianceScaling", "config": {"scale": 2.0, "mode": "fan_out", "distribution": "truncated_normal", "seed": null}}, "bias_initializer": {"class_name": "Zeros", "config": {}}, "kernel_regularizer": null, "bias_regularizer": null, "activity_regularizer": null, "kernel_constraint": null, "bias_constraint": null}, "name": "block3d_se_expand", "inbound_nodes": [[["block3d_se_reduce", 0, 0, {}]]]}, {"class_name": "Multiply", "config": {"name": "block3d_se_excite", "trainable": false, "dtype": "float32"}, "name": "block3d_se_excite", "inbound_nodes": [[["block3d_activation", 0, 0, {}], ["block3d_se_expand", 0, 0, {}]]]}, {"class_name": "Conv2D", "config": {"name": "block3d_project_conv", "trainable": false, "dtype": "float32", "filters": 56, "kernel_size": [1, 1], "strides": [1, 1], "padding": "same", "data_format": "channels_last", "dilation_rate": [1, 1], "groups": 1, "activation": "linear", "use_bias": false, "kernel_initializer": {"class_name": "VarianceScaling", "config": {"scale": 2.0, "mode": "fan_out", "distribution": "truncated_normal", "seed": null}}, "bias_initializer": {"class_name": "Zeros", "config": {}}, "kernel_regularizer": null, "bias_regularizer": null, "activity_regularizer": null, "kernel_constraint": null, "bias_constraint": null}, "name": "block3d_project_conv", "inbound_nodes": [[["block3d_se_excite", 0, 0, {}]]]}, {"class_name": "BatchNormalization", "config": {"name": "block3d_project_bn", "trainable": false, "dtype": "float32", "axis": [3], "momentum": 0.99, "epsilon": 0.001, "center": true, "scale": true, "beta_initializer": {"class_name": "Zeros", "config": {}}, "gamma_initializer": {"class_name": "Ones", "config": {}}, "moving_mean_initializer": {"class_name": "Zeros", "config": {}}, "moving_variance_initializer": {"class_name": "Ones", "config": {}}, "beta_regularizer": null, "gamma_regularizer": null, "beta_constraint": null, "gamma_constraint": null}, "name": "block3d_project_bn", "inbound_nodes": [[["block3d_project_conv", 0, 0, {}]]]}, {"class_name": "Dropout", "config": {"name": "block3d_drop", "trainable": false, "dtype": "float32", "rate": 0.05625, "noise_shape": [null, 1, 1, 1], "seed": null}, "name": "block3d_drop", "inbound_nodes": [[["block3d_project_bn", 0, 0, {}]]]}, {"class_name": "Add", "config": {"name": "block3d_add", "trainable": false, "dtype": "float32"}, "name": "block3d_add", "inbound_nodes": [[["block3d_drop", 0, 0, {}], ["block3c_add", 0, 0, {}]]]}, {"class_name": "Conv2D", "config": {"name": "block4a_expand_conv", "trainable": false, "dtype": "float32", "filters": 336, "kernel_size": [1, 1], "strides": [1, 1], "padding": "same", "data_format": "channels_last", "dilation_rate": [1, 1], "groups": 1, "activation": "linear", "use_bias": false, "kernel_initializer": {"class_name": "VarianceScaling", "config": {"scale": 2.0, "mode": "fan_out", "distribution": "truncated_normal", "seed": null}}, "bias_initializer": {"class_name": "Zeros", "config": {}}, "kernel_regularizer": null, "bias_regularizer": null, "activity_regularizer": null, "kernel_constraint": null, "bias_constraint": null}, "name": "block4a_expand_conv", "inbound_nodes": [[["block3d_add", 0, 0, {}]]]}, {"class_name": "BatchNormalization", "config": {"name": "block4a_expand_bn", "trainable": false, "dtype": "float32", "axis": [3], "momentum": 0.99, "epsilon": 0.001, "center": true, "scale": true, "beta_initializer": {"class_name": "Zeros", "config": {}}, "gamma_initializer": {"class_name": "Ones", "config": {}}, "moving_mean_initializer": {"class_name": "Zeros", "config": {}}, "moving_variance_initializer": {"class_name": "Ones", "config": {}}, "beta_regularizer": null, "gamma_regularizer": null, "beta_constraint": null, "gamma_constraint": null}, "name": "block4a_expand_bn", "inbound_nodes": [[["block4a_expand_conv", 0, 0, {}]]]}, {"class_name": "Activation", "config": {"name": "block4a_expand_activation", "trainable": false, "dtype": "float32", "activation": "swish"}, "name": "block4a_expand_activation", "inbound_nodes": [[["block4a_expand_bn", 0, 0, {}]]]}, {"class_name": "ZeroPadding2D", "config": {"name": "block4a_dwconv_pad", "trainable": false, "dtype": "float32", "padding": [[0, 1], [0, 1]], "data_format": "channels_last"}, "name": "block4a_dwconv_pad", "inbound_nodes": [[["block4a_expand_activation", 0, 0, {}]]]}, {"class_name": "DepthwiseConv2D", "config": {"name": "block4a_dwconv", "trainable": false, "dtype": "float32", "kernel_size": [3, 3], "strides": [2, 2], "padding": "valid", "data_format": "channels_last", "dilation_rate": [1, 1], "groups": 1, "activation": "linear", "use_bias": false, "bias_initializer": {"class_name": "Zeros", "config": {}}, "bias_regularizer": null, "activity_regularizer": null, "bias_constraint": null, "depth_multiplier": 1, "depthwise_initializer": {"class_name": "VarianceScaling", "config": {"scale": 2.0, "mode": "fan_out", "distribution": "truncated_normal", "seed": null}}, "depthwise_regularizer": null, "depthwise_constraint": null}, "name": "block4a_dwconv", "inbound_nodes": [[["block4a_dwconv_pad", 0, 0, {}]]]}, {"class_name": "BatchNormalization", "config": {"name": "block4a_bn", "trainable": false, "dtype": "float32", "axis": [3], "momentum": 0.99, "epsilon": 0.001, "center": true, "scale": true, "beta_initializer": {"class_name": "Zeros", "config": {}}, "gamma_initializer": {"class_name": "Ones", "config": {}}, "moving_mean_initializer": {"class_name": "Zeros", "config": {}}, "moving_variance_initializer": {"class_name": "Ones", "config": {}}, "beta_regularizer": null, "gamma_regularizer": null, "beta_constraint": null, "gamma_constraint": null}, "name": "block4a_bn", "inbound_nodes": [[["block4a_dwconv", 0, 0, {}]]]}, {"class_name": "Activation", "config": {"name": "block4a_activation", "trainable": false, "dtype": "float32", "activation": "swish"}, "name": "block4a_activation", "inbound_nodes": [[["block4a_bn", 0, 0, {}]]]}, {"class_name": "GlobalAveragePooling2D", "config": {"name": "block4a_se_squeeze", "trainable": false, "dtype": "float32", "data_format": "channels_last"}, "name": "block4a_se_squeeze", "inbound_nodes": [[["block4a_activation", 0, 0, {}]]]}, {"class_name": "Reshape", "config": {"name": "block4a_se_reshape", "trainable": false, "dtype": "float32", "target_shape": [1, 1, 336]}, "name": "block4a_se_reshape", "inbound_nodes": [[["block4a_se_squeeze", 0, 0, {}]]]}, {"class_name": "Conv2D", "config": {"name": "block4a_se_reduce", "trainable": false, "dtype": "float32", "filters": 14, "kernel_size": [1, 1], "strides": [1, 1], "padding": "same", "data_format": "channels_last", "dilation_rate": [1, 1], "groups": 1, "activation": "swish", "use_bias": true, "kernel_initializer": {"class_name": "VarianceScaling", "config": {"scale": 2.0, "mode": "fan_out", "distribution": "truncated_normal", "seed": null}}, "bias_initializer": {"class_name": "Zeros", "config": {}}, "kernel_regularizer": null, "bias_regularizer": null, "activity_regularizer": null, "kernel_constraint": null, "bias_constraint": null}, "name": "block4a_se_reduce", "inbound_nodes": [[["block4a_se_reshape", 0, 0, {}]]]}, {"class_name": "Conv2D", "config": {"name": "block4a_se_expand", "trainable": false, "dtype": "float32", "filters": 336, "kernel_size": [1, 1], "strides": [1, 1], "padding": "same", "data_format": "channels_last", "dilation_rate": [1, 1], "groups": 1, "activation": "sigmoid", "use_bias": true, "kernel_initializer": {"class_name": "VarianceScaling", "config": {"scale": 2.0, "mode": "fan_out", "distribution": "truncated_normal", "seed": null}}, "bias_initializer": {"class_name": "Zeros", "config": {}}, "kernel_regularizer": null, "bias_regularizer": null, "activity_regularizer": null, "kernel_constraint": null, "bias_constraint": null}, "name": "block4a_se_expand", "inbound_nodes": [[["block4a_se_reduce", 0, 0, {}]]]}, {"class_name": "Multiply", "config": {"name": "block4a_se_excite", "trainable": false, "dtype": "float32"}, "name": "block4a_se_excite", "inbound_nodes": [[["block4a_activation", 0, 0, {}], ["block4a_se_expand", 0, 0, {}]]]}, {"class_name": "Conv2D", "config": {"name": "block4a_project_conv", "trainable": false, "dtype": "float32", "filters": 112, "kernel_size": [1, 1], "strides": [1, 1], "padding": "same", "data_format": "channels_last", "dilation_rate": [1, 1], "groups": 1, "activation": "linear", "use_bias": false, "kernel_initializer": {"class_name": "VarianceScaling", "config": {"scale": 2.0, "mode": "fan_out", "distribution": "truncated_normal", "seed": null}}, "bias_initializer": {"class_name": "Zeros", "config": {}}, "kernel_regularizer": null, "bias_regularizer": null, "activity_regularizer": null, "kernel_constraint": null, "bias_constraint": null}, "name": "block4a_project_conv", "inbound_nodes": [[["block4a_se_excite", 0, 0, {}]]]}, {"class_name": "BatchNormalization", "config": {"name": "block4a_project_bn", "trainable": false, "dtype": "float32", "axis": [3], "momentum": 0.99, "epsilon": 0.001, "center": true, "scale": true, "beta_initializer": {"class_name": "Zeros", "config": {}}, "gamma_initializer": {"class_name": "Ones", "config": {}}, "moving_mean_initializer": {"class_name": "Zeros", "config": {}}, "moving_variance_initializer": {"class_name": "Ones", "config": {}}, "beta_regularizer": null, "gamma_regularizer": null, "beta_constraint": null, "gamma_constraint": null}, "name": "block4a_project_bn", "inbound_nodes": [[["block4a_project_conv", 0, 0, {}]]]}, {"class_name": "Conv2D", "config": {"name": "block4b_expand_conv", "trainable": false, "dtype": "float32", "filters": 672, "kernel_size": [1, 1], "strides": [1, 1], "padding": "same", "data_format": "channels_last", "dilation_rate": [1, 1], "groups": 1, "activation": "linear", "use_bias": false, "kernel_initializer": {"class_name": "VarianceScaling", "config": {"scale": 2.0, "mode": "fan_out", "distribution": "truncated_normal", "seed": null}}, "bias_initializer": {"class_name": "Zeros", "config": {}}, "kernel_regularizer": null, "bias_regularizer": null, "activity_regularizer": null, "kernel_constraint": null, "bias_constraint": null}, "name": "block4b_expand_conv", "inbound_nodes": [[["block4a_project_bn", 0, 0, {}]]]}, {"class_name": "BatchNormalization", "config": {"name": "block4b_expand_bn", "trainable": false, "dtype": "float32", "axis": [3], "momentum": 0.99, "epsilon": 0.001, "center": true, "scale": true, "beta_initializer": {"class_name": "Zeros", "config": {}}, "gamma_initializer": {"class_name": "Ones", "config": {}}, "moving_mean_initializer": {"class_name": "Zeros", "config": {}}, "moving_variance_initializer": {"class_name": "Ones", "config": {}}, "beta_regularizer": null, "gamma_regularizer": null, "beta_constraint": null, "gamma_constraint": null}, "name": "block4b_expand_bn", "inbound_nodes": [[["block4b_expand_conv", 0, 0, {}]]]}, {"class_name": "Activation", "config": {"name": "block4b_expand_activation", "trainable": false, "dtype": "float32", "activation": "swish"}, "name": "block4b_expand_activation", "inbound_nodes": [[["block4b_expand_bn", 0, 0, {}]]]}, {"class_name": "DepthwiseConv2D", "config": {"name": "block4b_dwconv", "trainable": false, "dtype": "float32", "kernel_size": [3, 3], "strides": [1, 1], "padding": "same", "data_format": "channels_last", "dilation_rate": [1, 1], "groups": 1, "activation": "linear", "use_bias": false, "bias_initializer": {"class_name": "Zeros", "config": {}}, "bias_regularizer": null, "activity_regularizer": null, "bias_constraint": null, "depth_multiplier": 1, "depthwise_initializer": {"class_name": "VarianceScaling", "config": {"scale": 2.0, "mode": "fan_out", "distribution": "truncated_normal", "seed": null}}, "depthwise_regularizer": null, "depthwise_constraint": null}, "name": "block4b_dwconv", "inbound_nodes": [[["block4b_expand_activation", 0, 0, {}]]]}, {"class_name": "BatchNormalization", "config": {"name": "block4b_bn", "trainable": false, "dtype": "float32", "axis": [3], "momentum": 0.99, "epsilon": 0.001, "center": true, "scale": true, "beta_initializer": {"class_name": "Zeros", "config": {}}, "gamma_initializer": {"class_name": "Ones", "config": {}}, "moving_mean_initializer": {"class_name": "Zeros", "config": {}}, "moving_variance_initializer": {"class_name": "Ones", "config": {}}, "beta_regularizer": null, "gamma_regularizer": null, "beta_constraint": null, "gamma_constraint": null}, "name": "block4b_bn", "inbound_nodes": [[["block4b_dwconv", 0, 0, {}]]]}, {"class_name": "Activation", "config": {"name": "block4b_activation", "trainable": false, "dtype": "float32", "activation": "swish"}, "name": "block4b_activation", "inbound_nodes": [[["block4b_bn", 0, 0, {}]]]}, {"class_name": "GlobalAveragePooling2D", "config": {"name": "block4b_se_squeeze", "trainable": false, "dtype": "float32", "data_format": "channels_last"}, "name": "block4b_se_squeeze", "inbound_nodes": [[["block4b_activation", 0, 0, {}]]]}, {"class_name": "Reshape", "config": {"name": "block4b_se_reshape", "trainable": false, "dtype": "float32", "target_shape": [1, 1, 672]}, "name": "block4b_se_reshape", "inbound_nodes": [[["block4b_se_squeeze", 0, 0, {}]]]}, {"class_name": "Conv2D", "config": {"name": "block4b_se_reduce", "trainable": false, "dtype": "float32", "filters": 28, "kernel_size": [1, 1], "strides": [1, 1], "padding": "same", "data_format": "channels_last", "dilation_rate": [1, 1], "groups": 1, "activation": "swish", "use_bias": true, "kernel_initializer": {"class_name": "VarianceScaling", "config": {"scale": 2.0, "mode": "fan_out", "distribution": "truncated_normal", "seed": null}}, "bias_initializer": {"class_name": "Zeros", "config": {}}, "kernel_regularizer": null, "bias_regularizer": null, "activity_regularizer": null, "kernel_constraint": null, "bias_constraint": null}, "name": "block4b_se_reduce", "inbound_nodes": [[["block4b_se_reshape", 0, 0, {}]]]}, {"class_name": "Conv2D", "config": {"name": "block4b_se_expand", "trainable": false, "dtype": "float32", "filters": 672, "kernel_size": [1, 1], "strides": [1, 1], "padding": "same", "data_format": "channels_last", "dilation_rate": [1, 1], "groups": 1, "activation": "sigmoid", "use_bias": true, "kernel_initializer": {"class_name": "VarianceScaling", "config": {"scale": 2.0, "mode": "fan_out", "distribution": "truncated_normal", "seed": null}}, "bias_initializer": {"class_name": "Zeros", "config": {}}, "kernel_regularizer": null, "bias_regularizer": null, "activity_regularizer": null, "kernel_constraint": null, "bias_constraint": null}, "name": "block4b_se_expand", "inbound_nodes": [[["block4b_se_reduce", 0, 0, {}]]]}, {"class_name": "Multiply", "config": {"name": "block4b_se_excite", "trainable": false, "dtype": "float32"}, "name": "block4b_se_excite", "inbound_nodes": [[["block4b_activation", 0, 0, {}], ["block4b_se_expand", 0, 0, {}]]]}, {"class_name": "Conv2D", "config": {"name": "block4b_project_conv", "trainable": false, "dtype": "float32", "filters": 112, "kernel_size": [1, 1], "strides": [1, 1], "padding": "same", "data_format": "channels_last", "dilation_rate": [1, 1], "groups": 1, "activation": "linear", "use_bias": false, "kernel_initializer": {"class_name": "VarianceScaling", "config": {"scale": 2.0, "mode": "fan_out", "distribution": "truncated_normal", "seed": null}}, "bias_initializer": {"class_name": "Zeros", "config": {}}, "kernel_regularizer": null, "bias_regularizer": null, "activity_regularizer": null, "kernel_constraint": null, "bias_constraint": null}, "name": "block4b_project_conv", "inbound_nodes": [[["block4b_se_excite", 0, 0, {}]]]}, {"class_name": "BatchNormalization", "config": {"name": "block4b_project_bn", "trainable": false, "dtype": "float32", "axis": [3], "momentum": 0.99, "epsilon": 0.001, "center": true, "scale": true, "beta_initializer": {"class_name": "Zeros", "config": {}}, "gamma_initializer": {"class_name": "Ones", "config": {}}, "moving_mean_initializer": {"class_name": "Zeros", "config": {}}, "moving_variance_initializer": {"class_name": "Ones", "config": {}}, "beta_regularizer": null, "gamma_regularizer": null, "beta_constraint": null, "gamma_constraint": null}, "name": "block4b_project_bn", "inbound_nodes": [[["block4b_project_conv", 0, 0, {}]]]}, {"class_name": "Dropout", "config": {"name": "block4b_drop", "trainable": false, "dtype": "float32", "rate": 0.06875, "noise_shape": [null, 1, 1, 1], "seed": null}, "name": "block4b_drop", "inbound_nodes": [[["block4b_project_bn", 0, 0, {}]]]}, {"class_name": "Add", "config": {"name": "block4b_add", "trainable": false, "dtype": "float32"}, "name": "block4b_add", "inbound_nodes": [[["block4b_drop", 0, 0, {}], ["block4a_project_bn", 0, 0, {}]]]}, {"class_name": "Conv2D", "config": {"name": "block4c_expand_conv", "trainable": false, "dtype": "float32", "filters": 672, "kernel_size": [1, 1], "strides": [1, 1], "padding": "same", "data_format": "channels_last", "dilation_rate": [1, 1], "groups": 1, "activation": "linear", "use_bias": false, "kernel_initializer": {"class_name": "VarianceScaling", "config": {"scale": 2.0, "mode": "fan_out", "distribution": "truncated_normal", "seed": null}}, "bias_initializer": {"class_name": "Zeros", "config": {}}, "kernel_regularizer": null, "bias_regularizer": null, "activity_regularizer": null, "kernel_constraint": null, "bias_constraint": null}, "name": "block4c_expand_conv", "inbound_nodes": [[["block4b_add", 0, 0, {}]]]}, {"class_name": "BatchNormalization", "config": {"name": "block4c_expand_bn", "trainable": false, "dtype": "float32", "axis": [3], "momentum": 0.99, "epsilon": 0.001, "center": true, "scale": true, "beta_initializer": {"class_name": "Zeros", "config": {}}, "gamma_initializer": {"class_name": "Ones", "config": {}}, "moving_mean_initializer": {"class_name": "Zeros", "config": {}}, "moving_variance_initializer": {"class_name": "Ones", "config": {}}, "beta_regularizer": null, "gamma_regularizer": null, "beta_constraint": null, "gamma_constraint": null}, "name": "block4c_expand_bn", "inbound_nodes": [[["block4c_expand_conv", 0, 0, {}]]]}, {"class_name": "Activation", "config": {"name": "block4c_expand_activation", "trainable": false, "dtype": "float32", "activation": "swish"}, "name": "block4c_expand_activation", "inbound_nodes": [[["block4c_expand_bn", 0, 0, {}]]]}, {"class_name": "DepthwiseConv2D", "config": {"name": "block4c_dwconv", "trainable": false, "dtype": "float32", "kernel_size": [3, 3], "strides": [1, 1], "padding": "same", "data_format": "channels_last", "dilation_rate": [1, 1], "groups": 1, "activation": "linear", "use_bias": false, "bias_initializer": {"class_name": "Zeros", "config": {}}, "bias_regularizer": null, "activity_regularizer": null, "bias_constraint": null, "depth_multiplier": 1, "depthwise_initializer": {"class_name": "VarianceScaling", "config": {"scale": 2.0, "mode": "fan_out", "distribution": "truncated_normal", "seed": null}}, "depthwise_regularizer": null, "depthwise_constraint": null}, "name": "block4c_dwconv", "inbound_nodes": [[["block4c_expand_activation", 0, 0, {}]]]}, {"class_name": "BatchNormalization", "config": {"name": "block4c_bn", "trainable": false, "dtype": "float32", "axis": [3], "momentum": 0.99, "epsilon": 0.001, "center": true, "scale": true, "beta_initializer": {"class_name": "Zeros", "config": {}}, "gamma_initializer": {"class_name": "Ones", "config": {}}, "moving_mean_initializer": {"class_name": "Zeros", "config": {}}, "moving_variance_initializer": {"class_name": "Ones", "config": {}}, "beta_regularizer": null, "gamma_regularizer": null, "beta_constraint": null, "gamma_constraint": null}, "name": "block4c_bn", "inbound_nodes": [[["block4c_dwconv", 0, 0, {}]]]}, {"class_name": "Activation", "config": {"name": "block4c_activation", "trainable": false, "dtype": "float32", "activation": "swish"}, "name": "block4c_activation", "inbound_nodes": [[["block4c_bn", 0, 0, {}]]]}, {"class_name": "GlobalAveragePooling2D", "config": {"name": "block4c_se_squeeze", "trainable": false, "dtype": "float32", "data_format": "channels_last"}, "name": "block4c_se_squeeze", "inbound_nodes": [[["block4c_activation", 0, 0, {}]]]}, {"class_name": "Reshape", "config": {"name": "block4c_se_reshape", "trainable": false, "dtype": "float32", "target_shape": [1, 1, 672]}, "name": "block4c_se_reshape", "inbound_nodes": [[["block4c_se_squeeze", 0, 0, {}]]]}, {"class_name": "Conv2D", "config": {"name": "block4c_se_reduce", "trainable": false, "dtype": "float32", "filters": 28, "kernel_size": [1, 1], "strides": [1, 1], "padding": "same", "data_format": "channels_last", "dilation_rate": [1, 1], "groups": 1, "activation": "swish", "use_bias": true, "kernel_initializer": {"class_name": "VarianceScaling", "config": {"scale": 2.0, "mode": "fan_out", "distribution": "truncated_normal", "seed": null}}, "bias_initializer": {"class_name": "Zeros", "config": {}}, "kernel_regularizer": null, "bias_regularizer": null, "activity_regularizer": null, "kernel_constraint": null, "bias_constraint": null}, "name": "block4c_se_reduce", "inbound_nodes": [[["block4c_se_reshape", 0, 0, {}]]]}, {"class_name": "Conv2D", "config": {"name": "block4c_se_expand", "trainable": false, "dtype": "float32", "filters": 672, "kernel_size": [1, 1], "strides": [1, 1], "padding": "same", "data_format": "channels_last", "dilation_rate": [1, 1], "groups": 1, "activation": "sigmoid", "use_bias": true, "kernel_initializer": {"class_name": "VarianceScaling", "config": {"scale": 2.0, "mode": "fan_out", "distribution": "truncated_normal", "seed": null}}, "bias_initializer": {"class_name": "Zeros", "config": {}}, "kernel_regularizer": null, "bias_regularizer": null, "activity_regularizer": null, "kernel_constraint": null, "bias_constraint": null}, "name": "block4c_se_expand", "inbound_nodes": [[["block4c_se_reduce", 0, 0, {}]]]}, {"class_name": "Multiply", "config": {"name": "block4c_se_excite", "trainable": false, "dtype": "float32"}, "name": "block4c_se_excite", "inbound_nodes": [[["block4c_activation", 0, 0, {}], ["block4c_se_expand", 0, 0, {}]]]}, {"class_name": "Conv2D", "config": {"name": "block4c_project_conv", "trainable": false, "dtype": "float32", "filters": 112, "kernel_size": [1, 1], "strides": [1, 1], "padding": "same", "data_format": "channels_last", "dilation_rate": [1, 1], "groups": 1, "activation": "linear", "use_bias": false, "kernel_initializer": {"class_name": "VarianceScaling", "config": {"scale": 2.0, "mode": "fan_out", "distribution": "truncated_normal", "seed": null}}, "bias_initializer": {"class_name": "Zeros", "config": {}}, "kernel_regularizer": null, "bias_regularizer": null, "activity_regularizer": null, "kernel_constraint": null, "bias_constraint": null}, "name": "block4c_project_conv", "inbound_nodes": [[["block4c_se_excite", 0, 0, {}]]]}, {"class_name": "BatchNormalization", "config": {"name": "block4c_project_bn", "trainable": false, "dtype": "float32", "axis": [3], "momentum": 0.99, "epsilon": 0.001, "center": true, "scale": true, "beta_initializer": {"class_name": "Zeros", "config": {}}, "gamma_initializer": {"class_name": "Ones", "config": {}}, "moving_mean_initializer": {"class_name": "Zeros", "config": {}}, "moving_variance_initializer": {"class_name": "Ones", "config": {}}, "beta_regularizer": null, "gamma_regularizer": null, "beta_constraint": null, "gamma_constraint": null}, "name": "block4c_project_bn", "inbound_nodes": [[["block4c_project_conv", 0, 0, {}]]]}, {"class_name": "Dropout", "config": {"name": "block4c_drop", "trainable": false, "dtype": "float32", "rate": 0.07500000000000001, "noise_shape": [null, 1, 1, 1], "seed": null}, "name": "block4c_drop", "inbound_nodes": [[["block4c_project_bn", 0, 0, {}]]]}, {"class_name": "Add", "config": {"name": "block4c_add", "trainable": false, "dtype": "float32"}, "name": "block4c_add", "inbound_nodes": [[["block4c_drop", 0, 0, {}], ["block4b_add", 0, 0, {}]]]}, {"class_name": "Conv2D", "config": {"name": "block4d_expand_conv", "trainable": false, "dtype": "float32", "filters": 672, "kernel_size": [1, 1], "strides": [1, 1], "padding": "same", "data_format": "channels_last", "dilation_rate": [1, 1], "groups": 1, "activation": "linear", "use_bias": false, "kernel_initializer": {"class_name": "VarianceScaling", "config": {"scale": 2.0, "mode": "fan_out", "distribution": "truncated_normal", "seed": null}}, "bias_initializer": {"class_name": "Zeros", "config": {}}, "kernel_regularizer": null, "bias_regularizer": null, "activity_regularizer": null, "kernel_constraint": null, "bias_constraint": null}, "name": "block4d_expand_conv", "inbound_nodes": [[["block4c_add", 0, 0, {}]]]}, {"class_name": "BatchNormalization", "config": {"name": "block4d_expand_bn", "trainable": false, "dtype": "float32", "axis": [3], "momentum": 0.99, "epsilon": 0.001, "center": true, "scale": true, "beta_initializer": {"class_name": "Zeros", "config": {}}, "gamma_initializer": {"class_name": "Ones", "config": {}}, "moving_mean_initializer": {"class_name": "Zeros", "config": {}}, "moving_variance_initializer": {"class_name": "Ones", "config": {}}, "beta_regularizer": null, "gamma_regularizer": null, "beta_constraint": null, "gamma_constraint": null}, "name": "block4d_expand_bn", "inbound_nodes": [[["block4d_expand_conv", 0, 0, {}]]]}, {"class_name": "Activation", "config": {"name": "block4d_expand_activation", "trainable": false, "dtype": "float32", "activation": "swish"}, "name": "block4d_expand_activation", "inbound_nodes": [[["block4d_expand_bn", 0, 0, {}]]]}, {"class_name": "DepthwiseConv2D", "config": {"name": "block4d_dwconv", "trainable": false, "dtype": "float32", "kernel_size": [3, 3], "strides": [1, 1], "padding": "same", "data_format": "channels_last", "dilation_rate": [1, 1], "groups": 1, "activation": "linear", "use_bias": false, "bias_initializer": {"class_name": "Zeros", "config": {}}, "bias_regularizer": null, "activity_regularizer": null, "bias_constraint": null, "depth_multiplier": 1, "depthwise_initializer": {"class_name": "VarianceScaling", "config": {"scale": 2.0, "mode": "fan_out", "distribution": "truncated_normal", "seed": null}}, "depthwise_regularizer": null, "depthwise_constraint": null}, "name": "block4d_dwconv", "inbound_nodes": [[["block4d_expand_activation", 0, 0, {}]]]}, {"class_name": "BatchNormalization", "config": {"name": "block4d_bn", "trainable": false, "dtype": "float32", "axis": [3], "momentum": 0.99, "epsilon": 0.001, "center": true, "scale": true, "beta_initializer": {"class_name": "Zeros", "config": {}}, "gamma_initializer": {"class_name": "Ones", "config": {}}, "moving_mean_initializer": {"class_name": "Zeros", "config": {}}, "moving_variance_initializer": {"class_name": "Ones", "config": {}}, "beta_regularizer": null, "gamma_regularizer": null, "beta_constraint": null, "gamma_constraint": null}, "name": "block4d_bn", "inbound_nodes": [[["block4d_dwconv", 0, 0, {}]]]}, {"class_name": "Activation", "config": {"name": "block4d_activation", "trainable": false, "dtype": "float32", "activation": "swish"}, "name": "block4d_activation", "inbound_nodes": [[["block4d_bn", 0, 0, {}]]]}, {"class_name": "GlobalAveragePooling2D", "config": {"name": "block4d_se_squeeze", "trainable": false, "dtype": "float32", "data_format": "channels_last"}, "name": "block4d_se_squeeze", "inbound_nodes": [[["block4d_activation", 0, 0, {}]]]}, {"class_name": "Reshape", "config": {"name": "block4d_se_reshape", "trainable": false, "dtype": "float32", "target_shape": [1, 1, 672]}, "name": "block4d_se_reshape", "inbound_nodes": [[["block4d_se_squeeze", 0, 0, {}]]]}, {"class_name": "Conv2D", "config": {"name": "block4d_se_reduce", "trainable": false, "dtype": "float32", "filters": 28, "kernel_size": [1, 1], "strides": [1, 1], "padding": "same", "data_format": "channels_last", "dilation_rate": [1, 1], "groups": 1, "activation": "swish", "use_bias": true, "kernel_initializer": {"class_name": "VarianceScaling", "config": {"scale": 2.0, "mode": "fan_out", "distribution": "truncated_normal", "seed": null}}, "bias_initializer": {"class_name": "Zeros", "config": {}}, "kernel_regularizer": null, "bias_regularizer": null, "activity_regularizer": null, "kernel_constraint": null, "bias_constraint": null}, "name": "block4d_se_reduce", "inbound_nodes": [[["block4d_se_reshape", 0, 0, {}]]]}, {"class_name": "Conv2D", "config": {"name": "block4d_se_expand", "trainable": false, "dtype": "float32", "filters": 672, "kernel_size": [1, 1], "strides": [1, 1], "padding": "same", "data_format": "channels_last", "dilation_rate": [1, 1], "groups": 1, "activation": "sigmoid", "use_bias": true, "kernel_initializer": {"class_name": "VarianceScaling", "config": {"scale": 2.0, "mode": "fan_out", "distribution": "truncated_normal", "seed": null}}, "bias_initializer": {"class_name": "Zeros", "config": {}}, "kernel_regularizer": null, "bias_regularizer": null, "activity_regularizer": null, "kernel_constraint": null, "bias_constraint": null}, "name": "block4d_se_expand", "inbound_nodes": [[["block4d_se_reduce", 0, 0, {}]]]}, {"class_name": "Multiply", "config": {"name": "block4d_se_excite", "trainable": false, "dtype": "float32"}, "name": "block4d_se_excite", "inbound_nodes": [[["block4d_activation", 0, 0, {}], ["block4d_se_expand", 0, 0, {}]]]}, {"class_name": "Conv2D", "config": {"name": "block4d_project_conv", "trainable": false, "dtype": "float32", "filters": 112, "kernel_size": [1, 1], "strides": [1, 1], "padding": "same", "data_format": "channels_last", "dilation_rate": [1, 1], "groups": 1, "activation": "linear", "use_bias": false, "kernel_initializer": {"class_name": "VarianceScaling", "config": {"scale": 2.0, "mode": "fan_out", "distribution": "truncated_normal", "seed": null}}, "bias_initializer": {"class_name": "Zeros", "config": {}}, "kernel_regularizer": null, "bias_regularizer": null, "activity_regularizer": null, "kernel_constraint": null, "bias_constraint": null}, "name": "block4d_project_conv", "inbound_nodes": [[["block4d_se_excite", 0, 0, {}]]]}, {"class_name": "BatchNormalization", "config": {"name": "block4d_project_bn", "trainable": false, "dtype": "float32", "axis": [3], "momentum": 0.99, "epsilon": 0.001, "center": true, "scale": true, "beta_initializer": {"class_name": "Zeros", "config": {}}, "gamma_initializer": {"class_name": "Ones", "config": {}}, "moving_mean_initializer": {"class_name": "Zeros", "config": {}}, "moving_variance_initializer": {"class_name": "Ones", "config": {}}, "beta_regularizer": null, "gamma_regularizer": null, "beta_constraint": null, "gamma_constraint": null}, "name": "block4d_project_bn", "inbound_nodes": [[["block4d_project_conv", 0, 0, {}]]]}, {"class_name": "Dropout", "config": {"name": "block4d_drop", "trainable": false, "dtype": "float32", "rate": 0.08125, "noise_shape": [null, 1, 1, 1], "seed": null}, "name": "block4d_drop", "inbound_nodes": [[["block4d_project_bn", 0, 0, {}]]]}, {"class_name": "Add", "config": {"name": "block4d_add", "trainable": false, "dtype": "float32"}, "name": "block4d_add", "inbound_nodes": [[["block4d_drop", 0, 0, {}], ["block4c_add", 0, 0, {}]]]}, {"class_name": "Conv2D", "config": {"name": "block4e_expand_conv", "trainable": false, "dtype": "float32", "filters": 672, "kernel_size": [1, 1], "strides": [1, 1], "padding": "same", "data_format": "channels_last", "dilation_rate": [1, 1], "groups": 1, "activation": "linear", "use_bias": false, "kernel_initializer": {"class_name": "VarianceScaling", "config": {"scale": 2.0, "mode": "fan_out", "distribution": "truncated_normal", "seed": null}}, "bias_initializer": {"class_name": "Zeros", "config": {}}, "kernel_regularizer": null, "bias_regularizer": null, "activity_regularizer": null, "kernel_constraint": null, "bias_constraint": null}, "name": "block4e_expand_conv", "inbound_nodes": [[["block4d_add", 0, 0, {}]]]}, {"class_name": "BatchNormalization", "config": {"name": "block4e_expand_bn", "trainable": false, "dtype": "float32", "axis": [3], "momentum": 0.99, "epsilon": 0.001, "center": true, "scale": true, "beta_initializer": {"class_name": "Zeros", "config": {}}, "gamma_initializer": {"class_name": "Ones", "config": {}}, "moving_mean_initializer": {"class_name": "Zeros", "config": {}}, "moving_variance_initializer": {"class_name": "Ones", "config": {}}, "beta_regularizer": null, "gamma_regularizer": null, "beta_constraint": null, "gamma_constraint": null}, "name": "block4e_expand_bn", "inbound_nodes": [[["block4e_expand_conv", 0, 0, {}]]]}, {"class_name": "Activation", "config": {"name": "block4e_expand_activation", "trainable": false, "dtype": "float32", "activation": "swish"}, "name": "block4e_expand_activation", "inbound_nodes": [[["block4e_expand_bn", 0, 0, {}]]]}, {"class_name": "DepthwiseConv2D", "config": {"name": "block4e_dwconv", "trainable": false, "dtype": "float32", "kernel_size": [3, 3], "strides": [1, 1], "padding": "same", "data_format": "channels_last", "dilation_rate": [1, 1], "groups": 1, "activation": "linear", "use_bias": false, "bias_initializer": {"class_name": "Zeros", "config": {}}, "bias_regularizer": null, "activity_regularizer": null, "bias_constraint": null, "depth_multiplier": 1, "depthwise_initializer": {"class_name": "VarianceScaling", "config": {"scale": 2.0, "mode": "fan_out", "distribution": "truncated_normal", "seed": null}}, "depthwise_regularizer": null, "depthwise_constraint": null}, "name": "block4e_dwconv", "inbound_nodes": [[["block4e_expand_activation", 0, 0, {}]]]}, {"class_name": "BatchNormalization", "config": {"name": "block4e_bn", "trainable": false, "dtype": "float32", "axis": [3], "momentum": 0.99, "epsilon": 0.001, "center": true, "scale": true, "beta_initializer": {"class_name": "Zeros", "config": {}}, "gamma_initializer": {"class_name": "Ones", "config": {}}, "moving_mean_initializer": {"class_name": "Zeros", "config": {}}, "moving_variance_initializer": {"class_name": "Ones", "config": {}}, "beta_regularizer": null, "gamma_regularizer": null, "beta_constraint": null, "gamma_constraint": null}, "name": "block4e_bn", "inbound_nodes": [[["block4e_dwconv", 0, 0, {}]]]}, {"class_name": "Activation", "config": {"name": "block4e_activation", "trainable": false, "dtype": "float32", "activation": "swish"}, "name": "block4e_activation", "inbound_nodes": [[["block4e_bn", 0, 0, {}]]]}, {"class_name": "GlobalAveragePooling2D", "config": {"name": "block4e_se_squeeze", "trainable": false, "dtype": "float32", "data_format": "channels_last"}, "name": "block4e_se_squeeze", "inbound_nodes": [[["block4e_activation", 0, 0, {}]]]}, {"class_name": "Reshape", "config": {"name": "block4e_se_reshape", "trainable": false, "dtype": "float32", "target_shape": [1, 1, 672]}, "name": "block4e_se_reshape", "inbound_nodes": [[["block4e_se_squeeze", 0, 0, {}]]]}, {"class_name": "Conv2D", "config": {"name": "block4e_se_reduce", "trainable": false, "dtype": "float32", "filters": 28, "kernel_size": [1, 1], "strides": [1, 1], "padding": "same", "data_format": "channels_last", "dilation_rate": [1, 1], "groups": 1, "activation": "swish", "use_bias": true, "kernel_initializer": {"class_name": "VarianceScaling", "config": {"scale": 2.0, "mode": "fan_out", "distribution": "truncated_normal", "seed": null}}, "bias_initializer": {"class_name": "Zeros", "config": {}}, "kernel_regularizer": null, "bias_regularizer": null, "activity_regularizer": null, "kernel_constraint": null, "bias_constraint": null}, "name": "block4e_se_reduce", "inbound_nodes": [[["block4e_se_reshape", 0, 0, {}]]]}, {"class_name": "Conv2D", "config": {"name": "block4e_se_expand", "trainable": false, "dtype": "float32", "filters": 672, "kernel_size": [1, 1], "strides": [1, 1], "padding": "same", "data_format": "channels_last", "dilation_rate": [1, 1], "groups": 1, "activation": "sigmoid", "use_bias": true, "kernel_initializer": {"class_name": "VarianceScaling", "config": {"scale": 2.0, "mode": "fan_out", "distribution": "truncated_normal", "seed": null}}, "bias_initializer": {"class_name": "Zeros", "config": {}}, "kernel_regularizer": null, "bias_regularizer": null, "activity_regularizer": null, "kernel_constraint": null, "bias_constraint": null}, "name": "block4e_se_expand", "inbound_nodes": [[["block4e_se_reduce", 0, 0, {}]]]}, {"class_name": "Multiply", "config": {"name": "block4e_se_excite", "trainable": false, "dtype": "float32"}, "name": "block4e_se_excite", "inbound_nodes": [[["block4e_activation", 0, 0, {}], ["block4e_se_expand", 0, 0, {}]]]}, {"class_name": "Conv2D", "config": {"name": "block4e_project_conv", "trainable": false, "dtype": "float32", "filters": 112, "kernel_size": [1, 1], "strides": [1, 1], "padding": "same", "data_format": "channels_last", "dilation_rate": [1, 1], "groups": 1, "activation": "linear", "use_bias": false, "kernel_initializer": {"class_name": "VarianceScaling", "config": {"scale": 2.0, "mode": "fan_out", "distribution": "truncated_normal", "seed": null}}, "bias_initializer": {"class_name": "Zeros", "config": {}}, "kernel_regularizer": null, "bias_regularizer": null, "activity_regularizer": null, "kernel_constraint": null, "bias_constraint": null}, "name": "block4e_project_conv", "inbound_nodes": [[["block4e_se_excite", 0, 0, {}]]]}, {"class_name": "BatchNormalization", "config": {"name": "block4e_project_bn", "trainable": false, "dtype": "float32", "axis": [3], "momentum": 0.99, "epsilon": 0.001, "center": true, "scale": true, "beta_initializer": {"class_name": "Zeros", "config": {}}, "gamma_initializer": {"class_name": "Ones", "config": {}}, "moving_mean_initializer": {"class_name": "Zeros", "config": {}}, "moving_variance_initializer": {"class_name": "Ones", "config": {}}, "beta_regularizer": null, "gamma_regularizer": null, "beta_constraint": null, "gamma_constraint": null}, "name": "block4e_project_bn", "inbound_nodes": [[["block4e_project_conv", 0, 0, {}]]]}, {"class_name": "Dropout", "config": {"name": "block4e_drop", "trainable": false, "dtype": "float32", "rate": 0.08750000000000001, "noise_shape": [null, 1, 1, 1], "seed": null}, "name": "block4e_drop", "inbound_nodes": [[["block4e_project_bn", 0, 0, {}]]]}, {"class_name": "Add", "config": {"name": "block4e_add", "trainable": false, "dtype": "float32"}, "name": "block4e_add", "inbound_nodes": [[["block4e_drop", 0, 0, {}], ["block4d_add", 0, 0, {}]]]}, {"class_name": "Conv2D", "config": {"name": "block4f_expand_conv", "trainable": false, "dtype": "float32", "filters": 672, "kernel_size": [1, 1], "strides": [1, 1], "padding": "same", "data_format": "channels_last", "dilation_rate": [1, 1], "groups": 1, "activation": "linear", "use_bias": false, "kernel_initializer": {"class_name": "VarianceScaling", "config": {"scale": 2.0, "mode": "fan_out", "distribution": "truncated_normal", "seed": null}}, "bias_initializer": {"class_name": "Zeros", "config": {}}, "kernel_regularizer": null, "bias_regularizer": null, "activity_regularizer": null, "kernel_constraint": null, "bias_constraint": null}, "name": "block4f_expand_conv", "inbound_nodes": [[["block4e_add", 0, 0, {}]]]}, {"class_name": "BatchNormalization", "config": {"name": "block4f_expand_bn", "trainable": false, "dtype": "float32", "axis": [3], "momentum": 0.99, "epsilon": 0.001, "center": true, "scale": true, "beta_initializer": {"class_name": "Zeros", "config": {}}, "gamma_initializer": {"class_name": "Ones", "config": {}}, "moving_mean_initializer": {"class_name": "Zeros", "config": {}}, "moving_variance_initializer": {"class_name": "Ones", "config": {}}, "beta_regularizer": null, "gamma_regularizer": null, "beta_constraint": null, "gamma_constraint": null}, "name": "block4f_expand_bn", "inbound_nodes": [[["block4f_expand_conv", 0, 0, {}]]]}, {"class_name": "Activation", "config": {"name": "block4f_expand_activation", "trainable": false, "dtype": "float32", "activation": "swish"}, "name": "block4f_expand_activation", "inbound_nodes": [[["block4f_expand_bn", 0, 0, {}]]]}, {"class_name": "DepthwiseConv2D", "config": {"name": "block4f_dwconv", "trainable": false, "dtype": "float32", "kernel_size": [3, 3], "strides": [1, 1], "padding": "same", "data_format": "channels_last", "dilation_rate": [1, 1], "groups": 1, "activation": "linear", "use_bias": false, "bias_initializer": {"class_name": "Zeros", "config": {}}, "bias_regularizer": null, "activity_regularizer": null, "bias_constraint": null, "depth_multiplier": 1, "depthwise_initializer": {"class_name": "VarianceScaling", "config": {"scale": 2.0, "mode": "fan_out", "distribution": "truncated_normal", "seed": null}}, "depthwise_regularizer": null, "depthwise_constraint": null}, "name": "block4f_dwconv", "inbound_nodes": [[["block4f_expand_activation", 0, 0, {}]]]}, {"class_name": "BatchNormalization", "config": {"name": "block4f_bn", "trainable": false, "dtype": "float32", "axis": [3], "momentum": 0.99, "epsilon": 0.001, "center": true, "scale": true, "beta_initializer": {"class_name": "Zeros", "config": {}}, "gamma_initializer": {"class_name": "Ones", "config": {}}, "moving_mean_initializer": {"class_name": "Zeros", "config": {}}, "moving_variance_initializer": {"class_name": "Ones", "config": {}}, "beta_regularizer": null, "gamma_regularizer": null, "beta_constraint": null, "gamma_constraint": null}, "name": "block4f_bn", "inbound_nodes": [[["block4f_dwconv", 0, 0, {}]]]}, {"class_name": "Activation", "config": {"name": "block4f_activation", "trainable": false, "dtype": "float32", "activation": "swish"}, "name": "block4f_activation", "inbound_nodes": [[["block4f_bn", 0, 0, {}]]]}, {"class_name": "GlobalAveragePooling2D", "config": {"name": "block4f_se_squeeze", "trainable": false, "dtype": "float32", "data_format": "channels_last"}, "name": "block4f_se_squeeze", "inbound_nodes": [[["block4f_activation", 0, 0, {}]]]}, {"class_name": "Reshape", "config": {"name": "block4f_se_reshape", "trainable": false, "dtype": "float32", "target_shape": [1, 1, 672]}, "name": "block4f_se_reshape", "inbound_nodes": [[["block4f_se_squeeze", 0, 0, {}]]]}, {"class_name": "Conv2D", "config": {"name": "block4f_se_reduce", "trainable": false, "dtype": "float32", "filters": 28, "kernel_size": [1, 1], "strides": [1, 1], "padding": "same", "data_format": "channels_last", "dilation_rate": [1, 1], "groups": 1, "activation": "swish", "use_bias": true, "kernel_initializer": {"class_name": "VarianceScaling", "config": {"scale": 2.0, "mode": "fan_out", "distribution": "truncated_normal", "seed": null}}, "bias_initializer": {"class_name": "Zeros", "config": {}}, "kernel_regularizer": null, "bias_regularizer": null, "activity_regularizer": null, "kernel_constraint": null, "bias_constraint": null}, "name": "block4f_se_reduce", "inbound_nodes": [[["block4f_se_reshape", 0, 0, {}]]]}, {"class_name": "Conv2D", "config": {"name": "block4f_se_expand", "trainable": false, "dtype": "float32", "filters": 672, "kernel_size": [1, 1], "strides": [1, 1], "padding": "same", "data_format": "channels_last", "dilation_rate": [1, 1], "groups": 1, "activation": "sigmoid", "use_bias": true, "kernel_initializer": {"class_name": "VarianceScaling", "config": {"scale": 2.0, "mode": "fan_out", "distribution": "truncated_normal", "seed": null}}, "bias_initializer": {"class_name": "Zeros", "config": {}}, "kernel_regularizer": null, "bias_regularizer": null, "activity_regularizer": null, "kernel_constraint": null, "bias_constraint": null}, "name": "block4f_se_expand", "inbound_nodes": [[["block4f_se_reduce", 0, 0, {}]]]}, {"class_name": "Multiply", "config": {"name": "block4f_se_excite", "trainable": false, "dtype": "float32"}, "name": "block4f_se_excite", "inbound_nodes": [[["block4f_activation", 0, 0, {}], ["block4f_se_expand", 0, 0, {}]]]}, {"class_name": "Conv2D", "config": {"name": "block4f_project_conv", "trainable": false, "dtype": "float32", "filters": 112, "kernel_size": [1, 1], "strides": [1, 1], "padding": "same", "data_format": "channels_last", "dilation_rate": [1, 1], "groups": 1, "activation": "linear", "use_bias": false, "kernel_initializer": {"class_name": "VarianceScaling", "config": {"scale": 2.0, "mode": "fan_out", "distribution": "truncated_normal", "seed": null}}, "bias_initializer": {"class_name": "Zeros", "config": {}}, "kernel_regularizer": null, "bias_regularizer": null, "activity_regularizer": null, "kernel_constraint": null, "bias_constraint": null}, "name": "block4f_project_conv", "inbound_nodes": [[["block4f_se_excite", 0, 0, {}]]]}, {"class_name": "BatchNormalization", "config": {"name": "block4f_project_bn", "trainable": false, "dtype": "float32", "axis": [3], "momentum": 0.99, "epsilon": 0.001, "center": true, "scale": true, "beta_initializer": {"class_name": "Zeros", "config": {}}, "gamma_initializer": {"class_name": "Ones", "config": {}}, "moving_mean_initializer": {"class_name": "Zeros", "config": {}}, "moving_variance_initializer": {"class_name": "Ones", "config": {}}, "beta_regularizer": null, "gamma_regularizer": null, "beta_constraint": null, "gamma_constraint": null}, "name": "block4f_project_bn", "inbound_nodes": [[["block4f_project_conv", 0, 0, {}]]]}, {"class_name": "Dropout", "config": {"name": "block4f_drop", "trainable": false, "dtype": "float32", "rate": 0.09375, "noise_shape": [null, 1, 1, 1], "seed": null}, "name": "block4f_drop", "inbound_nodes": [[["block4f_project_bn", 0, 0, {}]]]}, {"class_name": "Add", "config": {"name": "block4f_add", "trainable": false, "dtype": "float32"}, "name": "block4f_add", "inbound_nodes": [[["block4f_drop", 0, 0, {}], ["block4e_add", 0, 0, {}]]]}, {"class_name": "Conv2D", "config": {"name": "block5a_expand_conv", "trainable": false, "dtype": "float32", "filters": 672, "kernel_size": [1, 1], "strides": [1, 1], "padding": "same", "data_format": "channels_last", "dilation_rate": [1, 1], "groups": 1, "activation": "linear", "use_bias": false, "kernel_initializer": {"class_name": "VarianceScaling", "config": {"scale": 2.0, "mode": "fan_out", "distribution": "truncated_normal", "seed": null}}, "bias_initializer": {"class_name": "Zeros", "config": {}}, "kernel_regularizer": null, "bias_regularizer": null, "activity_regularizer": null, "kernel_constraint": null, "bias_constraint": null}, "name": "block5a_expand_conv", "inbound_nodes": [[["block4f_add", 0, 0, {}]]]}, {"class_name": "BatchNormalization", "config": {"name": "block5a_expand_bn", "trainable": false, "dtype": "float32", "axis": [3], "momentum": 0.99, "epsilon": 0.001, "center": true, "scale": true, "beta_initializer": {"class_name": "Zeros", "config": {}}, "gamma_initializer": {"class_name": "Ones", "config": {}}, "moving_mean_initializer": {"class_name": "Zeros", "config": {}}, "moving_variance_initializer": {"class_name": "Ones", "config": {}}, "beta_regularizer": null, "gamma_regularizer": null, "beta_constraint": null, "gamma_constraint": null}, "name": "block5a_expand_bn", "inbound_nodes": [[["block5a_expand_conv", 0, 0, {}]]]}, {"class_name": "Activation", "config": {"name": "block5a_expand_activation", "trainable": false, "dtype": "float32", "activation": "swish"}, "name": "block5a_expand_activation", "inbound_nodes": [[["block5a_expand_bn", 0, 0, {}]]]}, {"class_name": "DepthwiseConv2D", "config": {"name": "block5a_dwconv", "trainable": false, "dtype": "float32", "kernel_size": [5, 5], "strides": [1, 1], "padding": "same", "data_format": "channels_last", "dilation_rate": [1, 1], "groups": 1, "activation": "linear", "use_bias": false, "bias_initializer": {"class_name": "Zeros", "config": {}}, "bias_regularizer": null, "activity_regularizer": null, "bias_constraint": null, "depth_multiplier": 1, "depthwise_initializer": {"class_name": "VarianceScaling", "config": {"scale": 2.0, "mode": "fan_out", "distribution": "truncated_normal", "seed": null}}, "depthwise_regularizer": null, "depthwise_constraint": null}, "name": "block5a_dwconv", "inbound_nodes": [[["block5a_expand_activation", 0, 0, {}]]]}, {"class_name": "BatchNormalization", "config": {"name": "block5a_bn", "trainable": false, "dtype": "float32", "axis": [3], "momentum": 0.99, "epsilon": 0.001, "center": true, "scale": true, "beta_initializer": {"class_name": "Zeros", "config": {}}, "gamma_initializer": {"class_name": "Ones", "config": {}}, "moving_mean_initializer": {"class_name": "Zeros", "config": {}}, "moving_variance_initializer": {"class_name": "Ones", "config": {}}, "beta_regularizer": null, "gamma_regularizer": null, "beta_constraint": null, "gamma_constraint": null}, "name": "block5a_bn", "inbound_nodes": [[["block5a_dwconv", 0, 0, {}]]]}, {"class_name": "Activation", "config": {"name": "block5a_activation", "trainable": false, "dtype": "float32", "activation": "swish"}, "name": "block5a_activation", "inbound_nodes": [[["block5a_bn", 0, 0, {}]]]}, {"class_name": "GlobalAveragePooling2D", "config": {"name": "block5a_se_squeeze", "trainable": false, "dtype": "float32", "data_format": "channels_last"}, "name": "block5a_se_squeeze", "inbound_nodes": [[["block5a_activation", 0, 0, {}]]]}, {"class_name": "Reshape", "config": {"name": "block5a_se_reshape", "trainable": false, "dtype": "float32", "target_shape": [1, 1, 672]}, "name": "block5a_se_reshape", "inbound_nodes": [[["block5a_se_squeeze", 0, 0, {}]]]}, {"class_name": "Conv2D", "config": {"name": "block5a_se_reduce", "trainable": false, "dtype": "float32", "filters": 28, "kernel_size": [1, 1], "strides": [1, 1], "padding": "same", "data_format": "channels_last", "dilation_rate": [1, 1], "groups": 1, "activation": "swish", "use_bias": true, "kernel_initializer": {"class_name": "VarianceScaling", "config": {"scale": 2.0, "mode": "fan_out", "distribution": "truncated_normal", "seed": null}}, "bias_initializer": {"class_name": "Zeros", "config": {}}, "kernel_regularizer": null, "bias_regularizer": null, "activity_regularizer": null, "kernel_constraint": null, "bias_constraint": null}, "name": "block5a_se_reduce", "inbound_nodes": [[["block5a_se_reshape", 0, 0, {}]]]}, {"class_name": "Conv2D", "config": {"name": "block5a_se_expand", "trainable": false, "dtype": "float32", "filters": 672, "kernel_size": [1, 1], "strides": [1, 1], "padding": "same", "data_format": "channels_last", "dilation_rate": [1, 1], "groups": 1, "activation": "sigmoid", "use_bias": true, "kernel_initializer": {"class_name": "VarianceScaling", "config": {"scale": 2.0, "mode": "fan_out", "distribution": "truncated_normal", "seed": null}}, "bias_initializer": {"class_name": "Zeros", "config": {}}, "kernel_regularizer": null, "bias_regularizer": null, "activity_regularizer": null, "kernel_constraint": null, "bias_constraint": null}, "name": "block5a_se_expand", "inbound_nodes": [[["block5a_se_reduce", 0, 0, {}]]]}, {"class_name": "Multiply", "config": {"name": "block5a_se_excite", "trainable": false, "dtype": "float32"}, "name": "block5a_se_excite", "inbound_nodes": [[["block5a_activation", 0, 0, {}], ["block5a_se_expand", 0, 0, {}]]]}, {"class_name": "Conv2D", "config": {"name": "block5a_project_conv", "trainable": false, "dtype": "float32", "filters": 160, "kernel_size": [1, 1], "strides": [1, 1], "padding": "same", "data_format": "channels_last", "dilation_rate": [1, 1], "groups": 1, "activation": "linear", "use_bias": false, "kernel_initializer": {"class_name": "VarianceScaling", "config": {"scale": 2.0, "mode": "fan_out", "distribution": "truncated_normal", "seed": null}}, "bias_initializer": {"class_name": "Zeros", "config": {}}, "kernel_regularizer": null, "bias_regularizer": null, "activity_regularizer": null, "kernel_constraint": null, "bias_constraint": null}, "name": "block5a_project_conv", "inbound_nodes": [[["block5a_se_excite", 0, 0, {}]]]}, {"class_name": "BatchNormalization", "config": {"name": "block5a_project_bn", "trainable": false, "dtype": "float32", "axis": [3], "momentum": 0.99, "epsilon": 0.001, "center": true, "scale": true, "beta_initializer": {"class_name": "Zeros", "config": {}}, "gamma_initializer": {"class_name": "Ones", "config": {}}, "moving_mean_initializer": {"class_name": "Zeros", "config": {}}, "moving_variance_initializer": {"class_name": "Ones", "config": {}}, "beta_regularizer": null, "gamma_regularizer": null, "beta_constraint": null, "gamma_constraint": null}, "name": "block5a_project_bn", "inbound_nodes": [[["block5a_project_conv", 0, 0, {}]]]}, {"class_name": "Conv2D", "config": {"name": "block5b_expand_conv", "trainable": false, "dtype": "float32", "filters": 960, "kernel_size": [1, 1], "strides": [1, 1], "padding": "same", "data_format": "channels_last", "dilation_rate": [1, 1], "groups": 1, "activation": "linear", "use_bias": false, "kernel_initializer": {"class_name": "VarianceScaling", "config": {"scale": 2.0, "mode": "fan_out", "distribution": "truncated_normal", "seed": null}}, "bias_initializer": {"class_name": "Zeros", "config": {}}, "kernel_regularizer": null, "bias_regularizer": null, "activity_regularizer": null, "kernel_constraint": null, "bias_constraint": null}, "name": "block5b_expand_conv", "inbound_nodes": [[["block5a_project_bn", 0, 0, {}]]]}, {"class_name": "BatchNormalization", "config": {"name": "block5b_expand_bn", "trainable": false, "dtype": "float32", "axis": [3], "momentum": 0.99, "epsilon": 0.001, "center": true, "scale": true, "beta_initializer": {"class_name": "Zeros", "config": {}}, "gamma_initializer": {"class_name": "Ones", "config": {}}, "moving_mean_initializer": {"class_name": "Zeros", "config": {}}, "moving_variance_initializer": {"class_name": "Ones", "config": {}}, "beta_regularizer": null, "gamma_regularizer": null, "beta_constraint": null, "gamma_constraint": null}, "name": "block5b_expand_bn", "inbound_nodes": [[["block5b_expand_conv", 0, 0, {}]]]}, {"class_name": "Activation", "config": {"name": "block5b_expand_activation", "trainable": false, "dtype": "float32", "activation": "swish"}, "name": "block5b_expand_activation", "inbound_nodes": [[["block5b_expand_bn", 0, 0, {}]]]}, {"class_name": "DepthwiseConv2D", "config": {"name": "block5b_dwconv", "trainable": false, "dtype": "float32", "kernel_size": [5, 5], "strides": [1, 1], "padding": "same", "data_format": "channels_last", "dilation_rate": [1, 1], "groups": 1, "activation": "linear", "use_bias": false, "bias_initializer": {"class_name": "Zeros", "config": {}}, "bias_regularizer": null, "activity_regularizer": null, "bias_constraint": null, "depth_multiplier": 1, "depthwise_initializer": {"class_name": "VarianceScaling", "config": {"scale": 2.0, "mode": "fan_out", "distribution": "truncated_normal", "seed": null}}, "depthwise_regularizer": null, "depthwise_constraint": null}, "name": "block5b_dwconv", "inbound_nodes": [[["block5b_expand_activation", 0, 0, {}]]]}, {"class_name": "BatchNormalization", "config": {"name": "block5b_bn", "trainable": false, "dtype": "float32", "axis": [3], "momentum": 0.99, "epsilon": 0.001, "center": true, "scale": true, "beta_initializer": {"class_name": "Zeros", "config": {}}, "gamma_initializer": {"class_name": "Ones", "config": {}}, "moving_mean_initializer": {"class_name": "Zeros", "config": {}}, "moving_variance_initializer": {"class_name": "Ones", "config": {}}, "beta_regularizer": null, "gamma_regularizer": null, "beta_constraint": null, "gamma_constraint": null}, "name": "block5b_bn", "inbound_nodes": [[["block5b_dwconv", 0, 0, {}]]]}, {"class_name": "Activation", "config": {"name": "block5b_activation", "trainable": false, "dtype": "float32", "activation": "swish"}, "name": "block5b_activation", "inbound_nodes": [[["block5b_bn", 0, 0, {}]]]}, {"class_name": "GlobalAveragePooling2D", "config": {"name": "block5b_se_squeeze", "trainable": false, "dtype": "float32", "data_format": "channels_last"}, "name": "block5b_se_squeeze", "inbound_nodes": [[["block5b_activation", 0, 0, {}]]]}, {"class_name": "Reshape", "config": {"name": "block5b_se_reshape", "trainable": false, "dtype": "float32", "target_shape": [1, 1, 960]}, "name": "block5b_se_reshape", "inbound_nodes": [[["block5b_se_squeeze", 0, 0, {}]]]}, {"class_name": "Conv2D", "config": {"name": "block5b_se_reduce", "trainable": false, "dtype": "float32", "filters": 40, "kernel_size": [1, 1], "strides": [1, 1], "padding": "same", "data_format": "channels_last", "dilation_rate": [1, 1], "groups": 1, "activation": "swish", "use_bias": true, "kernel_initializer": {"class_name": "VarianceScaling", "config": {"scale": 2.0, "mode": "fan_out", "distribution": "truncated_normal", "seed": null}}, "bias_initializer": {"class_name": "Zeros", "config": {}}, "kernel_regularizer": null, "bias_regularizer": null, "activity_regularizer": null, "kernel_constraint": null, "bias_constraint": null}, "name": "block5b_se_reduce", "inbound_nodes": [[["block5b_se_reshape", 0, 0, {}]]]}, {"class_name": "Conv2D", "config": {"name": "block5b_se_expand", "trainable": false, "dtype": "float32", "filters": 960, "kernel_size": [1, 1], "strides": [1, 1], "padding": "same", "data_format": "channels_last", "dilation_rate": [1, 1], "groups": 1, "activation": "sigmoid", "use_bias": true, "kernel_initializer": {"class_name": "VarianceScaling", "config": {"scale": 2.0, "mode": "fan_out", "distribution": "truncated_normal", "seed": null}}, "bias_initializer": {"class_name": "Zeros", "config": {}}, "kernel_regularizer": null, "bias_regularizer": null, "activity_regularizer": null, "kernel_constraint": null, "bias_constraint": null}, "name": "block5b_se_expand", "inbound_nodes": [[["block5b_se_reduce", 0, 0, {}]]]}, {"class_name": "Multiply", "config": {"name": "block5b_se_excite", "trainable": false, "dtype": "float32"}, "name": "block5b_se_excite", "inbound_nodes": [[["block5b_activation", 0, 0, {}], ["block5b_se_expand", 0, 0, {}]]]}, {"class_name": "Conv2D", "config": {"name": "block5b_project_conv", "trainable": false, "dtype": "float32", "filters": 160, "kernel_size": [1, 1], "strides": [1, 1], "padding": "same", "data_format": "channels_last", "dilation_rate": [1, 1], "groups": 1, "activation": "linear", "use_bias": false, "kernel_initializer": {"class_name": "VarianceScaling", "config": {"scale": 2.0, "mode": "fan_out", "distribution": "truncated_normal", "seed": null}}, "bias_initializer": {"class_name": "Zeros", "config": {}}, "kernel_regularizer": null, "bias_regularizer": null, "activity_regularizer": null, "kernel_constraint": null, "bias_constraint": null}, "name": "block5b_project_conv", "inbound_nodes": [[["block5b_se_excite", 0, 0, {}]]]}, {"class_name": "BatchNormalization", "config": {"name": "block5b_project_bn", "trainable": false, "dtype": "float32", "axis": [3], "momentum": 0.99, "epsilon": 0.001, "center": true, "scale": true, "beta_initializer": {"class_name": "Zeros", "config": {}}, "gamma_initializer": {"class_name": "Ones", "config": {}}, "moving_mean_initializer": {"class_name": "Zeros", "config": {}}, "moving_variance_initializer": {"class_name": "Ones", "config": {}}, "beta_regularizer": null, "gamma_regularizer": null, "beta_constraint": null, "gamma_constraint": null}, "name": "block5b_project_bn", "inbound_nodes": [[["block5b_project_conv", 0, 0, {}]]]}, {"class_name": "Dropout", "config": {"name": "block5b_drop", "trainable": false, "dtype": "float32", "rate": 0.10625000000000001, "noise_shape": [null, 1, 1, 1], "seed": null}, "name": "block5b_drop", "inbound_nodes": [[["block5b_project_bn", 0, 0, {}]]]}, {"class_name": "Add", "config": {"name": "block5b_add", "trainable": false, "dtype": "float32"}, "name": "block5b_add", "inbound_nodes": [[["block5b_drop", 0, 0, {}], ["block5a_project_bn", 0, 0, {}]]]}, {"class_name": "Conv2D", "config": {"name": "block5c_expand_conv", "trainable": false, "dtype": "float32", "filters": 960, "kernel_size": [1, 1], "strides": [1, 1], "padding": "same", "data_format": "channels_last", "dilation_rate": [1, 1], "groups": 1, "activation": "linear", "use_bias": false, "kernel_initializer": {"class_name": "VarianceScaling", "config": {"scale": 2.0, "mode": "fan_out", "distribution": "truncated_normal", "seed": null}}, "bias_initializer": {"class_name": "Zeros", "config": {}}, "kernel_regularizer": null, "bias_regularizer": null, "activity_regularizer": null, "kernel_constraint": null, "bias_constraint": null}, "name": "block5c_expand_conv", "inbound_nodes": [[["block5b_add", 0, 0, {}]]]}, {"class_name": "BatchNormalization", "config": {"name": "block5c_expand_bn", "trainable": false, "dtype": "float32", "axis": [3], "momentum": 0.99, "epsilon": 0.001, "center": true, "scale": true, "beta_initializer": {"class_name": "Zeros", "config": {}}, "gamma_initializer": {"class_name": "Ones", "config": {}}, "moving_mean_initializer": {"class_name": "Zeros", "config": {}}, "moving_variance_initializer": {"class_name": "Ones", "config": {}}, "beta_regularizer": null, "gamma_regularizer": null, "beta_constraint": null, "gamma_constraint": null}, "name": "block5c_expand_bn", "inbound_nodes": [[["block5c_expand_conv", 0, 0, {}]]]}, {"class_name": "Activation", "config": {"name": "block5c_expand_activation", "trainable": false, "dtype": "float32", "activation": "swish"}, "name": "block5c_expand_activation", "inbound_nodes": [[["block5c_expand_bn", 0, 0, {}]]]}, {"class_name": "DepthwiseConv2D", "config": {"name": "block5c_dwconv", "trainable": false, "dtype": "float32", "kernel_size": [5, 5], "strides": [1, 1], "padding": "same", "data_format": "channels_last", "dilation_rate": [1, 1], "groups": 1, "activation": "linear", "use_bias": false, "bias_initializer": {"class_name": "Zeros", "config": {}}, "bias_regularizer": null, "activity_regularizer": null, "bias_constraint": null, "depth_multiplier": 1, "depthwise_initializer": {"class_name": "VarianceScaling", "config": {"scale": 2.0, "mode": "fan_out", "distribution": "truncated_normal", "seed": null}}, "depthwise_regularizer": null, "depthwise_constraint": null}, "name": "block5c_dwconv", "inbound_nodes": [[["block5c_expand_activation", 0, 0, {}]]]}, {"class_name": "BatchNormalization", "config": {"name": "block5c_bn", "trainable": false, "dtype": "float32", "axis": [3], "momentum": 0.99, "epsilon": 0.001, "center": true, "scale": true, "beta_initializer": {"class_name": "Zeros", "config": {}}, "gamma_initializer": {"class_name": "Ones", "config": {}}, "moving_mean_initializer": {"class_name": "Zeros", "config": {}}, "moving_variance_initializer": {"class_name": "Ones", "config": {}}, "beta_regularizer": null, "gamma_regularizer": null, "beta_constraint": null, "gamma_constraint": null}, "name": "block5c_bn", "inbound_nodes": [[["block5c_dwconv", 0, 0, {}]]]}, {"class_name": "Activation", "config": {"name": "block5c_activation", "trainable": false, "dtype": "float32", "activation": "swish"}, "name": "block5c_activation", "inbound_nodes": [[["block5c_bn", 0, 0, {}]]]}, {"class_name": "GlobalAveragePooling2D", "config": {"name": "block5c_se_squeeze", "trainable": false, "dtype": "float32", "data_format": "channels_last"}, "name": "block5c_se_squeeze", "inbound_nodes": [[["block5c_activation", 0, 0, {}]]]}, {"class_name": "Reshape", "config": {"name": "block5c_se_reshape", "trainable": false, "dtype": "float32", "target_shape": [1, 1, 960]}, "name": "block5c_se_reshape", "inbound_nodes": [[["block5c_se_squeeze", 0, 0, {}]]]}, {"class_name": "Conv2D", "config": {"name": "block5c_se_reduce", "trainable": false, "dtype": "float32", "filters": 40, "kernel_size": [1, 1], "strides": [1, 1], "padding": "same", "data_format": "channels_last", "dilation_rate": [1, 1], "groups": 1, "activation": "swish", "use_bias": true, "kernel_initializer": {"class_name": "VarianceScaling", "config": {"scale": 2.0, "mode": "fan_out", "distribution": "truncated_normal", "seed": null}}, "bias_initializer": {"class_name": "Zeros", "config": {}}, "kernel_regularizer": null, "bias_regularizer": null, "activity_regularizer": null, "kernel_constraint": null, "bias_constraint": null}, "name": "block5c_se_reduce", "inbound_nodes": [[["block5c_se_reshape", 0, 0, {}]]]}, {"class_name": "Conv2D", "config": {"name": "block5c_se_expand", "trainable": false, "dtype": "float32", "filters": 960, "kernel_size": [1, 1], "strides": [1, 1], "padding": "same", "data_format": "channels_last", "dilation_rate": [1, 1], "groups": 1, "activation": "sigmoid", "use_bias": true, "kernel_initializer": {"class_name": "VarianceScaling", "config": {"scale": 2.0, "mode": "fan_out", "distribution": "truncated_normal", "seed": null}}, "bias_initializer": {"class_name": "Zeros", "config": {}}, "kernel_regularizer": null, "bias_regularizer": null, "activity_regularizer": null, "kernel_constraint": null, "bias_constraint": null}, "name": "block5c_se_expand", "inbound_nodes": [[["block5c_se_reduce", 0, 0, {}]]]}, {"class_name": "Multiply", "config": {"name": "block5c_se_excite", "trainable": false, "dtype": "float32"}, "name": "block5c_se_excite", "inbound_nodes": [[["block5c_activation", 0, 0, {}], ["block5c_se_expand", 0, 0, {}]]]}, {"class_name": "Conv2D", "config": {"name": "block5c_project_conv", "trainable": false, "dtype": "float32", "filters": 160, "kernel_size": [1, 1], "strides": [1, 1], "padding": "same", "data_format": "channels_last", "dilation_rate": [1, 1], "groups": 1, "activation": "linear", "use_bias": false, "kernel_initializer": {"class_name": "VarianceScaling", "config": {"scale": 2.0, "mode": "fan_out", "distribution": "truncated_normal", "seed": null}}, "bias_initializer": {"class_name": "Zeros", "config": {}}, "kernel_regularizer": null, "bias_regularizer": null, "activity_regularizer": null, "kernel_constraint": null, "bias_constraint": null}, "name": "block5c_project_conv", "inbound_nodes": [[["block5c_se_excite", 0, 0, {}]]]}, {"class_name": "BatchNormalization", "config": {"name": "block5c_project_bn", "trainable": false, "dtype": "float32", "axis": [3], "momentum": 0.99, "epsilon": 0.001, "center": true, "scale": true, "beta_initializer": {"class_name": "Zeros", "config": {}}, "gamma_initializer": {"class_name": "Ones", "config": {}}, "moving_mean_initializer": {"class_name": "Zeros", "config": {}}, "moving_variance_initializer": {"class_name": "Ones", "config": {}}, "beta_regularizer": null, "gamma_regularizer": null, "beta_constraint": null, "gamma_constraint": null}, "name": "block5c_project_bn", "inbound_nodes": [[["block5c_project_conv", 0, 0, {}]]]}, {"class_name": "Dropout", "config": {"name": "block5c_drop", "trainable": false, "dtype": "float32", "rate": 0.1125, "noise_shape": [null, 1, 1, 1], "seed": null}, "name": "block5c_drop", "inbound_nodes": [[["block5c_project_bn", 0, 0, {}]]]}, {"class_name": "Add", "config": {"name": "block5c_add", "trainable": false, "dtype": "float32"}, "name": "block5c_add", "inbound_nodes": [[["block5c_drop", 0, 0, {}], ["block5b_add", 0, 0, {}]]]}, {"class_name": "Conv2D", "config": {"name": "block5d_expand_conv", "trainable": false, "dtype": "float32", "filters": 960, "kernel_size": [1, 1], "strides": [1, 1], "padding": "same", "data_format": "channels_last", "dilation_rate": [1, 1], "groups": 1, "activation": "linear", "use_bias": false, "kernel_initializer": {"class_name": "VarianceScaling", "config": {"scale": 2.0, "mode": "fan_out", "distribution": "truncated_normal", "seed": null}}, "bias_initializer": {"class_name": "Zeros", "config": {}}, "kernel_regularizer": null, "bias_regularizer": null, "activity_regularizer": null, "kernel_constraint": null, "bias_constraint": null}, "name": "block5d_expand_conv", "inbound_nodes": [[["block5c_add", 0, 0, {}]]]}, {"class_name": "BatchNormalization", "config": {"name": "block5d_expand_bn", "trainable": false, "dtype": "float32", "axis": [3], "momentum": 0.99, "epsilon": 0.001, "center": true, "scale": true, "beta_initializer": {"class_name": "Zeros", "config": {}}, "gamma_initializer": {"class_name": "Ones", "config": {}}, "moving_mean_initializer": {"class_name": "Zeros", "config": {}}, "moving_variance_initializer": {"class_name": "Ones", "config": {}}, "beta_regularizer": null, "gamma_regularizer": null, "beta_constraint": null, "gamma_constraint": null}, "name": "block5d_expand_bn", "inbound_nodes": [[["block5d_expand_conv", 0, 0, {}]]]}, {"class_name": "Activation", "config": {"name": "block5d_expand_activation", "trainable": false, "dtype": "float32", "activation": "swish"}, "name": "block5d_expand_activation", "inbound_nodes": [[["block5d_expand_bn", 0, 0, {}]]]}, {"class_name": "DepthwiseConv2D", "config": {"name": "block5d_dwconv", "trainable": false, "dtype": "float32", "kernel_size": [5, 5], "strides": [1, 1], "padding": "same", "data_format": "channels_last", "dilation_rate": [1, 1], "groups": 1, "activation": "linear", "use_bias": false, "bias_initializer": {"class_name": "Zeros", "config": {}}, "bias_regularizer": null, "activity_regularizer": null, "bias_constraint": null, "depth_multiplier": 1, "depthwise_initializer": {"class_name": "VarianceScaling", "config": {"scale": 2.0, "mode": "fan_out", "distribution": "truncated_normal", "seed": null}}, "depthwise_regularizer": null, "depthwise_constraint": null}, "name": "block5d_dwconv", "inbound_nodes": [[["block5d_expand_activation", 0, 0, {}]]]}, {"class_name": "BatchNormalization", "config": {"name": "block5d_bn", "trainable": false, "dtype": "float32", "axis": [3], "momentum": 0.99, "epsilon": 0.001, "center": true, "scale": true, "beta_initializer": {"class_name": "Zeros", "config": {}}, "gamma_initializer": {"class_name": "Ones", "config": {}}, "moving_mean_initializer": {"class_name": "Zeros", "config": {}}, "moving_variance_initializer": {"class_name": "Ones", "config": {}}, "beta_regularizer": null, "gamma_regularizer": null, "beta_constraint": null, "gamma_constraint": null}, "name": "block5d_bn", "inbound_nodes": [[["block5d_dwconv", 0, 0, {}]]]}, {"class_name": "Activation", "config": {"name": "block5d_activation", "trainable": false, "dtype": "float32", "activation": "swish"}, "name": "block5d_activation", "inbound_nodes": [[["block5d_bn", 0, 0, {}]]]}, {"class_name": "GlobalAveragePooling2D", "config": {"name": "block5d_se_squeeze", "trainable": false, "dtype": "float32", "data_format": "channels_last"}, "name": "block5d_se_squeeze", "inbound_nodes": [[["block5d_activation", 0, 0, {}]]]}, {"class_name": "Reshape", "config": {"name": "block5d_se_reshape", "trainable": false, "dtype": "float32", "target_shape": [1, 1, 960]}, "name": "block5d_se_reshape", "inbound_nodes": [[["block5d_se_squeeze", 0, 0, {}]]]}, {"class_name": "Conv2D", "config": {"name": "block5d_se_reduce", "trainable": false, "dtype": "float32", "filters": 40, "kernel_size": [1, 1], "strides": [1, 1], "padding": "same", "data_format": "channels_last", "dilation_rate": [1, 1], "groups": 1, "activation": "swish", "use_bias": true, "kernel_initializer": {"class_name": "VarianceScaling", "config": {"scale": 2.0, "mode": "fan_out", "distribution": "truncated_normal", "seed": null}}, "bias_initializer": {"class_name": "Zeros", "config": {}}, "kernel_regularizer": null, "bias_regularizer": null, "activity_regularizer": null, "kernel_constraint": null, "bias_constraint": null}, "name": "block5d_se_reduce", "inbound_nodes": [[["block5d_se_reshape", 0, 0, {}]]]}, {"class_name": "Conv2D", "config": {"name": "block5d_se_expand", "trainable": false, "dtype": "float32", "filters": 960, "kernel_size": [1, 1], "strides": [1, 1], "padding": "same", "data_format": "channels_last", "dilation_rate": [1, 1], "groups": 1, "activation": "sigmoid", "use_bias": true, "kernel_initializer": {"class_name": "VarianceScaling", "config": {"scale": 2.0, "mode": "fan_out", "distribution": "truncated_normal", "seed": null}}, "bias_initializer": {"class_name": "Zeros", "config": {}}, "kernel_regularizer": null, "bias_regularizer": null, "activity_regularizer": null, "kernel_constraint": null, "bias_constraint": null}, "name": "block5d_se_expand", "inbound_nodes": [[["block5d_se_reduce", 0, 0, {}]]]}, {"class_name": "Multiply", "config": {"name": "block5d_se_excite", "trainable": false, "dtype": "float32"}, "name": "block5d_se_excite", "inbound_nodes": [[["block5d_activation", 0, 0, {}], ["block5d_se_expand", 0, 0, {}]]]}, {"class_name": "Conv2D", "config": {"name": "block5d_project_conv", "trainable": false, "dtype": "float32", "filters": 160, "kernel_size": [1, 1], "strides": [1, 1], "padding": "same", "data_format": "channels_last", "dilation_rate": [1, 1], "groups": 1, "activation": "linear", "use_bias": false, "kernel_initializer": {"class_name": "VarianceScaling", "config": {"scale": 2.0, "mode": "fan_out", "distribution": "truncated_normal", "seed": null}}, "bias_initializer": {"class_name": "Zeros", "config": {}}, "kernel_regularizer": null, "bias_regularizer": null, "activity_regularizer": null, "kernel_constraint": null, "bias_constraint": null}, "name": "block5d_project_conv", "inbound_nodes": [[["block5d_se_excite", 0, 0, {}]]]}, {"class_name": "BatchNormalization", "config": {"name": "block5d_project_bn", "trainable": false, "dtype": "float32", "axis": [3], "momentum": 0.99, "epsilon": 0.001, "center": true, "scale": true, "beta_initializer": {"class_name": "Zeros", "config": {}}, "gamma_initializer": {"class_name": "Ones", "config": {}}, "moving_mean_initializer": {"class_name": "Zeros", "config": {}}, "moving_variance_initializer": {"class_name": "Ones", "config": {}}, "beta_regularizer": null, "gamma_regularizer": null, "beta_constraint": null, "gamma_constraint": null}, "name": "block5d_project_bn", "inbound_nodes": [[["block5d_project_conv", 0, 0, {}]]]}, {"class_name": "Dropout", "config": {"name": "block5d_drop", "trainable": false, "dtype": "float32", "rate": 0.11875000000000001, "noise_shape": [null, 1, 1, 1], "seed": null}, "name": "block5d_drop", "inbound_nodes": [[["block5d_project_bn", 0, 0, {}]]]}, {"class_name": "Add", "config": {"name": "block5d_add", "trainable": false, "dtype": "float32"}, "name": "block5d_add", "inbound_nodes": [[["block5d_drop", 0, 0, {}], ["block5c_add", 0, 0, {}]]]}, {"class_name": "Conv2D", "config": {"name": "block5e_expand_conv", "trainable": false, "dtype": "float32", "filters": 960, "kernel_size": [1, 1], "strides": [1, 1], "padding": "same", "data_format": "channels_last", "dilation_rate": [1, 1], "groups": 1, "activation": "linear", "use_bias": false, "kernel_initializer": {"class_name": "VarianceScaling", "config": {"scale": 2.0, "mode": "fan_out", "distribution": "truncated_normal", "seed": null}}, "bias_initializer": {"class_name": "Zeros", "config": {}}, "kernel_regularizer": null, "bias_regularizer": null, "activity_regularizer": null, "kernel_constraint": null, "bias_constraint": null}, "name": "block5e_expand_conv", "inbound_nodes": [[["block5d_add", 0, 0, {}]]]}, {"class_name": "BatchNormalization", "config": {"name": "block5e_expand_bn", "trainable": false, "dtype": "float32", "axis": [3], "momentum": 0.99, "epsilon": 0.001, "center": true, "scale": true, "beta_initializer": {"class_name": "Zeros", "config": {}}, "gamma_initializer": {"class_name": "Ones", "config": {}}, "moving_mean_initializer": {"class_name": "Zeros", "config": {}}, "moving_variance_initializer": {"class_name": "Ones", "config": {}}, "beta_regularizer": null, "gamma_regularizer": null, "beta_constraint": null, "gamma_constraint": null}, "name": "block5e_expand_bn", "inbound_nodes": [[["block5e_expand_conv", 0, 0, {}]]]}, {"class_name": "Activation", "config": {"name": "block5e_expand_activation", "trainable": false, "dtype": "float32", "activation": "swish"}, "name": "block5e_expand_activation", "inbound_nodes": [[["block5e_expand_bn", 0, 0, {}]]]}, {"class_name": "DepthwiseConv2D", "config": {"name": "block5e_dwconv", "trainable": false, "dtype": "float32", "kernel_size": [5, 5], "strides": [1, 1], "padding": "same", "data_format": "channels_last", "dilation_rate": [1, 1], "groups": 1, "activation": "linear", "use_bias": false, "bias_initializer": {"class_name": "Zeros", "config": {}}, "bias_regularizer": null, "activity_regularizer": null, "bias_constraint": null, "depth_multiplier": 1, "depthwise_initializer": {"class_name": "VarianceScaling", "config": {"scale": 2.0, "mode": "fan_out", "distribution": "truncated_normal", "seed": null}}, "depthwise_regularizer": null, "depthwise_constraint": null}, "name": "block5e_dwconv", "inbound_nodes": [[["block5e_expand_activation", 0, 0, {}]]]}, {"class_name": "BatchNormalization", "config": {"name": "block5e_bn", "trainable": false, "dtype": "float32", "axis": [3], "momentum": 0.99, "epsilon": 0.001, "center": true, "scale": true, "beta_initializer": {"class_name": "Zeros", "config": {}}, "gamma_initializer": {"class_name": "Ones", "config": {}}, "moving_mean_initializer": {"class_name": "Zeros", "config": {}}, "moving_variance_initializer": {"class_name": "Ones", "config": {}}, "beta_regularizer": null, "gamma_regularizer": null, "beta_constraint": null, "gamma_constraint": null}, "name": "block5e_bn", "inbound_nodes": [[["block5e_dwconv", 0, 0, {}]]]}, {"class_name": "Activation", "config": {"name": "block5e_activation", "trainable": false, "dtype": "float32", "activation": "swish"}, "name": "block5e_activation", "inbound_nodes": [[["block5e_bn", 0, 0, {}]]]}, {"class_name": "GlobalAveragePooling2D", "config": {"name": "block5e_se_squeeze", "trainable": false, "dtype": "float32", "data_format": "channels_last"}, "name": "block5e_se_squeeze", "inbound_nodes": [[["block5e_activation", 0, 0, {}]]]}, {"class_name": "Reshape", "config": {"name": "block5e_se_reshape", "trainable": false, "dtype": "float32", "target_shape": [1, 1, 960]}, "name": "block5e_se_reshape", "inbound_nodes": [[["block5e_se_squeeze", 0, 0, {}]]]}, {"class_name": "Conv2D", "config": {"name": "block5e_se_reduce", "trainable": false, "dtype": "float32", "filters": 40, "kernel_size": [1, 1], "strides": [1, 1], "padding": "same", "data_format": "channels_last", "dilation_rate": [1, 1], "groups": 1, "activation": "swish", "use_bias": true, "kernel_initializer": {"class_name": "VarianceScaling", "config": {"scale": 2.0, "mode": "fan_out", "distribution": "truncated_normal", "seed": null}}, "bias_initializer": {"class_name": "Zeros", "config": {}}, "kernel_regularizer": null, "bias_regularizer": null, "activity_regularizer": null, "kernel_constraint": null, "bias_constraint": null}, "name": "block5e_se_reduce", "inbound_nodes": [[["block5e_se_reshape", 0, 0, {}]]]}, {"class_name": "Conv2D", "config": {"name": "block5e_se_expand", "trainable": false, "dtype": "float32", "filters": 960, "kernel_size": [1, 1], "strides": [1, 1], "padding": "same", "data_format": "channels_last", "dilation_rate": [1, 1], "groups": 1, "activation": "sigmoid", "use_bias": true, "kernel_initializer": {"class_name": "VarianceScaling", "config": {"scale": 2.0, "mode": "fan_out", "distribution": "truncated_normal", "seed": null}}, "bias_initializer": {"class_name": "Zeros", "config": {}}, "kernel_regularizer": null, "bias_regularizer": null, "activity_regularizer": null, "kernel_constraint": null, "bias_constraint": null}, "name": "block5e_se_expand", "inbound_nodes": [[["block5e_se_reduce", 0, 0, {}]]]}, {"class_name": "Multiply", "config": {"name": "block5e_se_excite", "trainable": false, "dtype": "float32"}, "name": "block5e_se_excite", "inbound_nodes": [[["block5e_activation", 0, 0, {}], ["block5e_se_expand", 0, 0, {}]]]}, {"class_name": "Conv2D", "config": {"name": "block5e_project_conv", "trainable": false, "dtype": "float32", "filters": 160, "kernel_size": [1, 1], "strides": [1, 1], "padding": "same", "data_format": "channels_last", "dilation_rate": [1, 1], "groups": 1, "activation": "linear", "use_bias": false, "kernel_initializer": {"class_name": "VarianceScaling", "config": {"scale": 2.0, "mode": "fan_out", "distribution": "truncated_normal", "seed": null}}, "bias_initializer": {"class_name": "Zeros", "config": {}}, "kernel_regularizer": null, "bias_regularizer": null, "activity_regularizer": null, "kernel_constraint": null, "bias_constraint": null}, "name": "block5e_project_conv", "inbound_nodes": [[["block5e_se_excite", 0, 0, {}]]]}, {"class_name": "BatchNormalization", "config": {"name": "block5e_project_bn", "trainable": false, "dtype": "float32", "axis": [3], "momentum": 0.99, "epsilon": 0.001, "center": true, "scale": true, "beta_initializer": {"class_name": "Zeros", "config": {}}, "gamma_initializer": {"class_name": "Ones", "config": {}}, "moving_mean_initializer": {"class_name": "Zeros", "config": {}}, "moving_variance_initializer": {"class_name": "Ones", "config": {}}, "beta_regularizer": null, "gamma_regularizer": null, "beta_constraint": null, "gamma_constraint": null}, "name": "block5e_project_bn", "inbound_nodes": [[["block5e_project_conv", 0, 0, {}]]]}, {"class_name": "Dropout", "config": {"name": "block5e_drop", "trainable": false, "dtype": "float32", "rate": 0.125, "noise_shape": [null, 1, 1, 1], "seed": null}, "name": "block5e_drop", "inbound_nodes": [[["block5e_project_bn", 0, 0, {}]]]}, {"class_name": "Add", "config": {"name": "block5e_add", "trainable": false, "dtype": "float32"}, "name": "block5e_add", "inbound_nodes": [[["block5e_drop", 0, 0, {}], ["block5d_add", 0, 0, {}]]]}, {"class_name": "Conv2D", "config": {"name": "block5f_expand_conv", "trainable": false, "dtype": "float32", "filters": 960, "kernel_size": [1, 1], "strides": [1, 1], "padding": "same", "data_format": "channels_last", "dilation_rate": [1, 1], "groups": 1, "activation": "linear", "use_bias": false, "kernel_initializer": {"class_name": "VarianceScaling", "config": {"scale": 2.0, "mode": "fan_out", "distribution": "truncated_normal", "seed": null}}, "bias_initializer": {"class_name": "Zeros", "config": {}}, "kernel_regularizer": null, "bias_regularizer": null, "activity_regularizer": null, "kernel_constraint": null, "bias_constraint": null}, "name": "block5f_expand_conv", "inbound_nodes": [[["block5e_add", 0, 0, {}]]]}, {"class_name": "BatchNormalization", "config": {"name": "block5f_expand_bn", "trainable": false, "dtype": "float32", "axis": [3], "momentum": 0.99, "epsilon": 0.001, "center": true, "scale": true, "beta_initializer": {"class_name": "Zeros", "config": {}}, "gamma_initializer": {"class_name": "Ones", "config…
an_out", "distribution": "truncated_normal", "seed": null}}, "bias_initializer": {"class_name": "Zeros", "config": {}}, "kernel_regularizer": null, "bias_regularizer": null, "activity_regularizer": null, "kernel_constraint": null, "bias_constraint": null}, "name": "top_conv", "inbound_nodes": [[["block7b_add", 0, 0, {}]]]}, {"class_name": "BatchNormalization", "config": {"name": "top_bn", "trainable": false, "dtype": "float32", "axis": [3], "momentum": 0.99, "epsilon": 0.001, "center": true, "scale": true, "beta_initializer": {"class_name": "Zeros", "config": {}}, "gamma_initializer": {"class_name": "Ones", "config": {}}, "moving_mean_initializer": {"class_name": "Zeros", "config": {}}, "moving_variance_initializer": {"class_name": "Ones", "config": {}}, "beta_regularizer": null, "gamma_regularizer": null, "beta_constraint": null, "gamma_constraint": null}, "name": "top_bn", "inbound_nodes": [[["top_conv", 0, 0, {}]]]}, {"class_name": "Activation", "config": {"name": "top_activation", "trainable": false, "dtype": "float32", "activation": "swish"}, "name": "top_activation", "inbound_nodes": [[["top_bn", 0, 0, {}]]]}, {"class_name": "GlobalAveragePooling2D", "config": {"name": "avg_pool", "trainable": true, "dtype": "float32", "data_format": "channels_last"}, "name": "avg_pool", "inbound_nodes": [[["top_activation", 0, 0, {}]]]}, {"class_name": "Dropout", "config": {"name": "top_dropout", "trainable": true, "dtype": "float32", "rate": 0.2, "noise_shape": null, "seed": null}, "name": "top_dropout", "inbound_nodes": [[["avg_pool", 0, 0, {}]]]}, {"class_name": "Dense", "config": {"name": "pred", "trainable": true, "dtype": "float32", "units": 6, "activation": "softmax", "use_bias": true, "kernel_initializer": {"class_name": "GlorotUniform", "config": {"seed": null}}, "bias_initializer": {"class_name": "Zeros", "config": {}}, "kernel_regularizer": null, "bias_regularizer": null, "activity_regularizer": null, "kernel_constraint": null, "bias_constraint": null}, "name": "pred", "inbound_nodes": [[["top_dropout", 0, 0, {}]]]}], "input_layers": [["input_3", 0, 0]], "output_layers": [["pred", 0, 0]]}}}, "weightsManifest": [{"paths": ["group1-shard1of17.bin", "group1-shard2of17.bin", "group1-shard3of17.bin", "group1-shard4of17.bin", "group1-shard5of17.bin", "group1-shard6of17.bin", "group1-shard7of17.bin", "group1-shard8of17.bin", "group1-shard9of17.bin", "group1-shard10of17.bin", "group1-shard11of17.bin", "group1-shard12of17.bin", "group1-shard13of17.bin", "group1-shard14of17.bin", "group1-shard15of17.bin", "group1-shard16of17.bin", "group1-shard17of17.bin"], "weights": [{"name": "block1a_bn/gamma", "shape": [48], "dtype": "float32"}, {"name": "block1a_bn/beta", "shape": [48], "dtype": "float32"}, {"name": "block1a_bn/moving_mean", "shape": [48], "dtype": "float32"}, {"name": "block1a_bn/moving_variance", "shape": [48], "dtype": "float32"}, {"name": "block1a_dwconv/depthwise_kernel", "shape": [3, 3, 48, 1], "dtype": "float32"}, {"name": "block1a_project_bn/gamma", "shape": [24], "dtype": "float32"}, {"name": "block1a_project_bn/beta", "shape": [24], "dtype": "float32"}, {"name": "block1a_project_bn/moving_mean", "shape": [24], "dtype": "float32"}, {"name": "block1a_project_bn/moving_variance", "shape": [24], "dtype": "float32"}, {"name": "block1a_project_conv/kernel", "shape": [1, 1, 48, 24], "dtype": "float32"}, {"name": "block1a_se_expand/kernel", "shape": [1, 1, 12, 48], "dtype": "float32"}, {"name": "block1a_se_expand/bias", "shape": [48], "dtype": "float32"}, {"name": "block1a_se_reduce/kernel", "shape": [1, 1, 48, 12], "dtype": "float32"}, {"name": "block1a_se_reduce/bias", "shape": [12], "dtype": "float32"}, {"name": "block1b_bn/gamma", "shape": [24], "dtype": "float32"}, {"name": "block1b_bn/beta", "shape": [24], "dtype": "float32"}, {"name": "block1b_bn/moving_mean", "shape": [24], "dtype": "float32"}, {"name": "block1b_bn/moving_variance", "shape": [24], "dtype": "float32"}, {"name": "block1b_dwconv/depthwise_kernel", "shape": [3, 3, 24, 1], "dtype": "float32"}, {"name": "block1b_project_bn/gamma", "shape": [24], "dtype": "float32"}, {"name": "block1b_project_bn/beta", "shape": [24], "dtype": "float32"}, {"name": "block1b_project_bn/moving_mean", "shape": [24], "dtype": "float32"}, {"name": "block1b_project_bn/moving_variance", "shape": [24], "dtype": "float32"}, {"name": "block1b_project_conv/kernel", "shape": [1, 1, 24, 24], "dtype": "float32"}, {"name": "block1b_se_expand/kernel", "shape": [1, 1, 6, 24], "dtype": "float32"}, {"name": "block1b_se_expand/bias", "shape": [24], "dtype": "float32"}, {"name": "block1b_se_reduce/kernel", "shape": [1, 1, 24, 6], "dtype": "float32"}, {"name": "block1b_se_reduce/bias", "shape": [6], "dtype": "float32"}, {"name": "block2a_bn/gamma", "shape": [144], "dtype": "float32"}, {"name": "block2a_bn/beta", "shape": [144], "dtype": "float32"}, {"name": "block2a_bn/moving_mean", "shape": [144], "dtype": "float32"}, {"name": "block2a_bn/moving_variance", "shape": [144], "dtype": "float32"}, {"name": "block2a_dwconv/depthwise_kernel", "shape": [3, 3, 144, 1], "dtype": "float32"}, {"name": "block2a_expand_bn/gamma", "shape": [144], "dtype": "float32"}, {"name": "block2a_expand_bn/beta", "shape": [144], "dtype": "float32"}, {"name": "block2a_expand_bn/moving_mean", "shape": [144], "dtype": "float32"}, {"name": "block2a_expand_bn/moving_variance", "shape": [144], "dtype": "float32"}, {"name": "block2a_expand_conv/kernel", "shape": [1, 1, 24, 144], "dtype": "float32"}, {"name": "block2a_project_bn/gamma", "shape": [32], "dtype": "float32"}, {"name": "block2a_project_bn/beta", "shape": [32], "dtype": "float32"}, {"name": "block2a_project_bn/moving_mean", "shape": [32], "dtype": "float32"}, {"name": "block2a_project_bn/moving_variance", "shape": [32], "dtype": "float32"}, {"name": "block2a_project_conv/kernel", "shape": [1, 1, 144, 32], "dtype": "float32"}, {"name": "block2a_se_expand/kernel", "shape": [1, 1, 6, 144], "dtype": "float32"}, {"name": "block2a_se_expand/bias", "shape": [144], "dtype": "float32"}, {"name": "block2a_se_reduce/kernel", "shape": [1, 1, 144, 6], "dtype": "float32"}, {"name": "block2a_se_reduce/bias", "shape": [6], "dtype": "float32"}, {"name": "block2b_bn/gamma", "shape": [192], "dtype": "float32"}, {"name": "block2b_bn/beta", "shape": [192], "dtype": "float32"}, {"name": "block2b_bn/moving_mean", "shape": [192], "dtype": "float32"}, {"name": "block2b_bn/moving_variance", "shape": [192], "dtype": "float32"}, {"name": "block2b_dwconv/depthwise_kernel", "shape": [3, 3, 192, 1], "dtype": "float32"}, {"name": "block2b_expand_bn/gamma", "shape": [192], "dtype": "float32"}, {"name": "block2b_expand_bn/beta", "shape": [192], "dtype": "float32"}, {"name": "block2b_expand_bn/moving_mean", "shape": [192], "dtype": "float32"}, {"name": "block2b_expand_bn/moving_variance", "shape": [192], "dtype": "float32"}, {"name": "block2b_expand_conv/kernel", "shape": [1, 1, 32, 192], "dtype": "float32"}, {"name": "block2b_project_bn/gamma", "shape": [32], "dtype": "float32"}, {"name": "block2b_project_bn/beta", "shape": [32], "dtype": "float32"}, {"name": "block2b_project_bn/moving_mean", "shape": [32], "dtype": "float32"}, {"name": "block2b_project_bn/moving_variance", "shape": [32], "dtype": "float32"}, {"name": "block2b_project_conv/kernel", "shape": [1, 1, 192, 32], "dtype": "float32"}, {"name": "block2b_se_expand/kernel", "shape": [1, 1, 8, 192], "dtype": "float32"}, {"name": "block2b_se_expand/bias", "shape": [192], "dtype": "float32"}, {"name": "block2b_se_reduce/kernel", "shape": [1, 1, 192, 8], "dtype": "float32"}, {"name": "block2b_se_reduce/bias", "shape": [8], "dtype": "float32"}, {"name": "block2c_bn/gamma", "shape": [192], "dtype": "float32"}, {"name": "block2c_bn/beta", "shape": [192], "dtype": "float32"}, {"name": "block2c_bn/moving_mean", "shape": [192], "dtype": "float32"}, {"name": "block2c_bn/moving_variance", "shape": [192], "dtype": "float32"}, {"name": "block2c_dwconv/depthwise_kernel", "shape": [3, 3, 192, 1], "dtype": "float32"}, {"name": "block2c_expand_bn/gamma", "shape": [192], "dtype": "float32"}, {"name": "block2c_expand_bn/beta", "shape": [192], "dtype": "float32"}, {"name": "block2c_expand_bn/moving_mean", "shape": [192], "dtype": "float32"}, {"name": "block2c_expand_bn/moving_variance", "shape": [192], "dtype": "float32"}, {"name": "block2c_expand_conv/kernel", "shape": [1, 1, 32, 192], "dtype": "float32"}, {"name": "block2c_project_bn/gamma", "shape": [32], "dtype": "float32"}, {"name": "block2c_project_bn/beta", "shape": [32], "dtype": "float32"}, {"name": "block2c_project_bn/moving_mean", "shape": [32], "dtype": "float32"}, {"name": "block2c_project_bn/moving_variance", "shape": [32], "dtype": "float32"}, {"name": "block2c_project_conv/kernel", "shape": [1, 1, 192, 32], "dtype": "float32"}, {"name": "block2c_se_expand/kernel", "shape": [1, 1, 8, 192], "dtype": "float32"}, {"name": "block2c_se_expand/bias", "shape": [192], "dtype": "float32"}, {"name": "block2c_se_reduce/kernel", "shape": [1, 1, 192, 8], "dtype": "float32"}, {"name": "block2c_se_reduce/bias", "shape": [8], "dtype": "float32"}, {"name": "block2d_bn/gamma", "shape": [192], "dtype": "float32"}, {"name": "block2d_bn/beta", "shape": [192], "dtype": "float32"}, {"name": "block2d_bn/moving_mean", "shape": [192], "dtype": "float32"}, {"name": "block2d_bn/moving_variance", "shape": [192], "dtype": "float32"}, {"name": "block2d_dwconv/depthwise_kernel", "shape": [3, 3, 192, 1], "dtype": "float32"}, {"name": "block2d_expand_bn/gamma", "shape": [192], "dtype": "float32"}, {"name": "block2d_expand_bn/beta", "shape": [192], "dtype": "float32"}, {"name": "block2d_expand_bn/moving_mean", "shape": [192], "dtype": "float32"}, {"name": "block2d_expand_bn/moving_variance", "shape": [192], "dtype": "float32"}, {"name": "block2d_expand_conv/kernel", "shape": [1, 1, 32, 192], "dtype": "float32"}, {"name": "block2d_project_bn/gamma", "shape": [32], "dtype": "float32"}, {"name": "block2d_project_bn/beta", "shape": [32], "dtype": "float32"}, {"name": "block2d_project_bn/moving_mean", "shape": [32], "dtype": "float32"}, {"name": "block2d_project_bn/moving_variance", "shape": [32], "dtype": "float32"}, {"name": "block2d_project_conv/kernel", "shape": [1, 1, 192, 32], "dtype": "float32"}, {"name": "block2d_se_expand/kernel", "shape": [1, 1, 8, 192], "dtype": "float32"}, {"name": "block2d_se_expand/bias", "shape": [192], "dtype": "float32"}, {"name": "block2d_se_reduce/kernel", "shape": [1, 1, 192, 8], "dtype": "float32"}, {"name": "block2d_se_reduce/bias", "shape": [8], "dtype": "float32"}, {"name": "block3a_bn/gamma", "shape": [192], "dtype": "float32"}, {"name": "block3a_bn/beta", "shape": [192], "dtype": "float32"}, {"name": "block3a_bn/moving_mean", "shape": [192], "dtype": "float32"}, {"name": "block3a_bn/moving_variance", "shape": [192], "dtype": "float32"}, {"name": "block3a_dwconv/depthwise_kernel", "shape": [5, 5, 192, 1], "dtype": "float32"}, {"name": "block3a_expand_bn/gamma", "shape": [192], "dtype": "float32"}, {"name": "block3a_expand_bn/beta", "shape": [192], "dtype": "float32"}, {"name": "block3a_expand_bn/moving_mean", "shape": [192], "dtype": "float32"}, {"name": "block3a_expand_bn/moving_variance", "shape": [192], "dtype": "float32"}, {"name": "block3a_expand_conv/kernel", "shape": [1, 1, 32, 192], "dtype": "float32"}, {"name": "block3a_project_bn/gamma", "shape": [56], "dtype": "float32"}, {"name": "block3a_project_bn/beta", "shape": [56], "dtype": "float32"}, {"name": "block3a_project_bn/moving_mean", "shape": [56], "dtype": "float32"}, {"name": "block3a_project_bn/moving_variance", "shape": [56], "dtype": "float32"}, {"name": "block3a_project_conv/kernel", "shape": [1, 1, 192, 56], "dtype": "float32"}, {"name": "block3a_se_expand/kernel", "shape": [1, 1, 8, 192], "dtype": "float32"}, {"name": "block3a_se_expand/bias", "shape": [192], "dtype": "float32"}, {"name": "block3a_se_reduce/kernel", "shape": [1, 1, 192, 8], "dtype": "float32"}, {"name": "block3a_se_reduce/bias", "shape": [8], "dtype": "float32"}, {"name": "block3b_bn/gamma", "shape": [336], "dtype": "float32"}, {"name": "block3b_bn/beta", "shape": [336], "dtype": "float32"}, {"name": "block3b_bn/moving_mean", "shape": [336], "dtype": "float32"}, {"name": "block3b_bn/moving_variance", "shape": [336], "dtype": "float32"}, {"name": "block3b_dwconv/depthwise_kernel", "shape": [5, 5, 336, 1], "dtype": "float32"}, {"name": "block3b_expand_bn/gamma", "shape": [336], "dtype": "float32"}, {"name": "block3b_expand_bn/beta", "shape": [336], "dtype": "float32"}, {"name": "block3b_expand_bn/moving_mean", "shape": [336], "dtype": "float32"}, {"name": "block3b_expand_bn/moving_variance", "shape": [336], "dtype": "float32"}, {"name": "block3b_expand_conv/kernel", "shape": [1, 1, 56, 336], "dtype": "float32"}, {"name": "block3b_project_bn/gamma", "shape": [56], "dtype": "float32"}, {"name": "block3b_project_bn/beta", "shape": [56], "dtype": "float32"}, {"name": "block3b_project_bn/moving_mean", "shape": [56], "dtype": "float32"}, {"name": "block3b_project_bn/moving_variance", "shape": [56], "dtype": "float32"}, {"name": "block3b_project_conv/kernel", "shape": [1, 1, 336, 56], "dtype": "float32"}, {"name": "block3b_se_expand/kernel", "shape": [1, 1, 14, 336], "dtype": "float32"}, {"name": "block3b_se_expand/bias", "shape": [336], "dtype": "float32"}, {"name": "block3b_se_reduce/kernel", "shape": [1, 1, 336, 14], "dtype": "float32"}, {"name": "block3b_se_reduce/bias", "shape": [14], "dtype": "float32"}, {"name": "block3c_bn/gamma", "shape": [336], "dtype": "float32"}, {"name": "block3c_bn/beta", "shape": [336], "dtype": "float32"}, {"name": "block3c_bn/moving_mean", "shape": [336], "dtype": "float32"}, {"name": "block3c_bn/moving_variance", "shape": [336], "dtype": "float32"}, {"name": "block3c_dwconv/depthwise_kernel", "shape": [5, 5, 336, 1], "dtype": "float32"}, {"name": "block3c_expand_bn/gamma", "shape": [336], "dtype": "float32"}, {"name": "block3c_expand_bn/beta", "shape": [336], "dtype": "float32"}, {"name": "block3c_expand_bn/moving_mean", "shape": [336], "dtype": "float32"}, {"name": "block3c_expand_bn/moving_variance", "shape": [336], "dtype": "float32"}, {"name": "block3c_expand_conv/kernel", "shape": [1, 1, 56, 336], "dtype": "float32"}, {"name": "block3c_project_bn/gamma", "shape": [56], "dtype": "float32"}, {"name": "block3c_project_bn/beta", "shape": [56], "dtype": "float32"}, {"name": "block3c_project_bn/moving_mean", "shape": [56], "dtype": "float32"}, {"name": "block3c_project_bn/moving_variance", "shape": [56], "dtype": "float32"}, {"name": "block3c_project_conv/kernel", "shape": [1, 1, 336, 56], "dtype": "float32"}, {"name": "block3c_se_expand/kernel", "shape": [1, 1, 14, 336], "dtype": "float32"}, {"name": "block3c_se_expand/bias", "shape": [336], "dtype": "float32"}, {"name": "block3c_se_reduce/kernel", "shape": [1, 1, 336, 14], "dtype": "float32"}, {"name": "block3c_se_reduce/bias", "shape": [14], "dtype": "float32"}, {"name": "block3d_bn/gamma", "shape": [336], "dtype": "float32"}, {"name": "block3d_bn/beta", "shape": [336], "dtype": "float32"}, {"name": "block3d_bn/moving_mean", "shape": [336], "dtype": "float32"}, {"name": "block3d_bn/moving_variance", "shape": [336], "dtype": "float32"}, {"name": "block3d_dwconv/depthwise_kernel", "shape": [5, 5, 336, 1], "dtype": "float32"}, {"name": "block3d_expand_bn/gamma", "shape": [336], "dtype": "float32"}, {"name": "block3d_expand_bn/beta", "shape": [336], "dtype": "float32"}, {"name": "block3d_expand_bn/moving_mean", "shape": [336], "dtype": "float32"}, {"name": "block3d_expand_bn/moving_variance", "shape": [336], "dtype": "float32"}, {"name": "block3d_expand_conv/kernel", "shape": [1, 1, 56, 336], "dtype": "float32"}, {"name": "block3d_project_bn/gamma", "shape": [56], "dtype": "float32"}, {"name": "block3d_project_bn/beta", "shape": [56], "dtype": "float32"}, {"name": "block3d_project_bn/moving_mean", "shape": [56], "dtype": "float32"}, {"name": "block3d_project_bn/moving_variance", "shape": [56], "dtype": "float32"}, {"name": "block3d_project_conv/kernel", "shape": [1, 1, 336, 56], "dtype": "float32"}, {"name": "block3d_se_expand/kernel", "shape": [1, 1, 14, 336], "dtype": "float32"}, {"name": "block3d_se_expand/bias", "shape": [336], "dtype": "float32"}, {"name": "block3d_se_reduce/kernel", "shape": [1, 1, 336, 14], "dtype": "float32"}, {"name": "block3d_se_reduce/bias", "shape": [14], "dtype": "float32"}, {"name": "block4a_bn/gamma", "shape": [336], "dtype": "float32"}, {"name": "block4a_bn/beta", "shape": [336], "dtype": "float32"}, {"name": "block4a_bn/moving_mean", "shape": [336], "dtype": "float32"}, {"name": "block4a_bn/moving_variance", "shape": [336], "dtype": "float32"}, {"name": "block4a_dwconv/depthwise_kernel", "shape": [3, 3, 336, 1], "dtype": "float32"}, {"name": "block4a_expand_bn/gamma", "shape": [336], "dtype": "float32"}, {"name": "block4a_expand_bn/beta", "shape": [336], "dtype": "float32"}, {"name": "block4a_expand_bn/moving_mean", "shape": [336], "dtype": "float32"}, {"name": "block4a_expand_bn/moving_variance", "shape": [336], "dtype": "float32"}, {"name": "block4a_expand_conv/kernel", "shape": [1, 1, 56, 336], "dtype": "float32"}, {"name": "block4a_project_bn/gamma", "shape": [112], "dtype": "float32"}, {"name": "block4a_project_bn/beta", "shape": [112], "dtype": "float32"}, {"name": "block4a_project_bn/moving_mean", "shape": [112], "dtype": "float32"}, {"name": "block4a_project_bn/moving_variance", "shape": [112], "dtype": "float32"}, {"name": "block4a_project_conv/kernel", "shape": [1, 1, 336, 112], "dtype": "float32"}, {"name": "block4a_se_expand/kernel", "shape": [1, 1, 14, 336], "dtype": "float32"}, {"name": "block4a_se_expand/bias", "shape": [336], "dtype": "float32"}, {"name": "block4a_se_reduce/kernel", "shape": [1, 1, 336, 14], "dtype": "float32"}, {"name": "block4a_se_reduce/bias", "shape": [14], "dtype": "float32"}, {"name": "block4b_bn/gamma", "shape": [672], "dtype": "float32"}, {"name": "block4b_bn/beta", "shape": [672], "dtype": "float32"}, {"name": "block4b_bn/moving_mean", "shape": [672], "dtype": "float32"}, {"name": "block4b_bn/moving_variance", "shape": [672], "dtype": "float32"}, {"name": "block4b_dwconv/depthwise_kernel", "shape": [3, 3, 672, 1], "dtype": "float32"}, {"name": "block4b_expand_bn/gamma", "shape": [672], "dtype": "float32"}, {"name": "block4b_expand_bn/beta", "shape": [672], "dtype": "float32"}, {"name": "block4b_expand_bn/moving_mean", "shape": [672], "dtype": "float32"}, {"name": "block4b_expand_bn/moving_variance", "shape": [672], "dtype": "float32"}, {"name": "block4b_expand_conv/kernel", "shape": [1, 1, 112, 672], "dtype": "float32"}, {"name": "block4b_project_bn/gamma", "shape": [112], "dtype": "float32"}, {"name": "block4b_project_bn/beta", "shape": [112], "dtype": "float32"}, {"name": "block4b_project_bn/moving_mean", "shape": [112], "dtype": "float32"}, {"name": "block4b_project_bn/moving_variance", "shape": [112], "dtype": "float32"}, {"name": "block4b_project_conv/kernel", "shape": [1, 1, 672, 112], "dtype": "float32"}, {"name": "block4b_se_expand/kernel", "shape": [1, 1, 28, 672], "dtype": "float32"}, {"name": "block4b_se_expand/bias", "shape": [672], "dtype": "float32"}, {"name": "block4b_se_reduce/kernel", "shape": [1, 1, 672, 28], "dtype": "float32"}, {"name": "block4b_se_reduce/bias", "shape": [28], "dtype": "float32"}, {"name": "block4c_bn/gamma", "shape": [672], "dtype": "float32"}, {"name": "block4c_bn/beta", "shape": [672], "dtype": "float32"}, {"name": "block4c_bn/moving_mean", "shape": [672], "dtype": "float32"}, {"name": "block4c_bn/moving_variance", "shape": [672], "dtype": "float32"}, {"name": "block4c_dwconv/depthwise_kernel", "shape": [3, 3, 672, 1], "dtype": "float32"}, {"name": "block4c_expand_bn/gamma", "shape": [672], "dtype": "float32"}, {"name": "block4c_expand_bn/beta", "shape": [672], "dtype": "float32"}, {"name": "block4c_expand_bn/moving_mean", "shape": [672], "dtype": "float32"}, {"name": "block4c_expand_bn/moving_variance", "shape": [672], "dtype": "float32"}, {"name": "block4c_expand_conv/kernel", "shape": [1, 1, 112, 672], "dtype": "float32"}, {"name": "block4c_project_bn/gamma", "shape": [112], "dtype": "float32"}, {"name": "block4c_project_bn/beta", "shape": [112], "dtype": "float32"}, {"name": "block4c_project_bn/moving_mean", "shape": [112], "dtype": "float32"}, {"name": "block4c_project_bn/moving_variance", "shape": [112], "dtype": "float32"}, {"name": "block4c_project_conv/kernel", "shape": [1, 1, 672, 112], "dtype": "float32"}, {"name": "block4c_se_expand/kernel", "shape": [1, 1, 28, 672], "dtype": "float32"}, {"name": "block4c_se_expand/bias", "shape": [672], "dtype": "float32"}, {"name": "block4c_se_reduce/kernel", "shape": [1, 1, 672, 28], "dtype": "float32"}, {"name": "block4c_se_reduce/bias", "shape": [28], "dtype": "float32"}, {"name": "block4d_bn/gamma", "shape": [672], "dtype": "float32"}, {"name": "block4d_bn/beta", "shape": [672], "dtype": "float32"}, {"name": "block4d_bn/moving_mean", "shape": [672], "dtype": "float32"}, {"name": "block4d_bn/moving_variance", "shape": [672], "dtype": "float32"}, {"name": "block4d_dwconv/depthwise_kernel", "shape": [3, 3, 672, 1], "dtype": "float32"}, {"name": "block4d_expand_bn/gamma", "shape": [672], "dtype": "float32"}, {"name": "block4d_expand_bn/beta", "shape": [672], "dtype": "float32"}, {"name": "block4d_expand_bn/moving_mean", "shape": [672], "dtype": "float32"}, {"name": "block4d_expand_bn/moving_variance", "shape": [672], "dtype": "float32"}, {"name": "block4d_expand_conv/kernel", "shape": [1, 1, 112, 672], "dtype": "float32"}, {"name": "block4d_project_bn/gamma", "shape": [112], "dtype": "float32"}, {"name": "block4d_project_bn/beta", "shape": [112], "dtype": "float32"}, {"name": "block4d_project_bn/moving_mean", "shape": [112], "dtype": "float32"}, {"name": "block4d_project_bn/moving_variance", "shape": [112], "dtype": "float32"}, {"name": "block4d_project_conv/kernel", "shape": [1, 1, 672, 112], "dtype": "float32"}, {"name": "block4d_se_expand/kernel", "shape": [1, 1, 28, 672], "dtype": "float32"}, {"name": "block4d_se_expand/bias", "shape": [672], "dtype": "float32"}, {"name": "block4d_se_reduce/kernel", "shape": [1, 1, 672, 28], "dtype": "float32"}, {"name": "block4d_se_reduce/bias", "shape": [28], "dtype": "float32"}, {"name": "block4e_bn/gamma", "shape": [672], "dtype": "float32"}, {"name": "block4e_bn/beta", "shape": [672], "dtype": "float32"}, {"name": "block4e_bn/moving_mean", "shape": [672], "dtype": "float32"}, {"name": "block4e_bn/moving_variance", "shape": [672], "dtype": "float32"}, {"name": "block4e_dwconv/depthwise_kernel", "shape": [3, 3, 672, 1], "dtype": "float32"}, {"name": "block4e_expand_bn/gamma", "shape": [672], "dtype": "float32"}, {"name": "block4e_expand_bn/beta", "shape": [672], "dtype": "float32"}, {"name": "block4e_expand_bn/moving_mean", "shape": [672], "dtype": "float32"}, {"name": "block4e_expand_bn/moving_variance", "shape": [672], "dtype": "float32"}, {"name": "block4e_expand_conv/kernel", "shape": [1, 1, 112, 672], "dtype": "float32"}, {"name": "block4e_project_bn/gamma", "shape": [112], "dtype": "float32"}, {"name": "block4e_project_bn/beta", "shape": [112], "dtype": "float32"}, {"name": "block4e_project_bn/moving_mean", "shape": [112], "dtype": "float32"}, {"name": "block4e_project_bn/moving_variance", "shape": [112], "dtype": "float32"}, {"name": "block4e_project_conv/kernel", "shape": [1, 1, 672, 112], "dtype": "float32"}, {"name": "block4e_se_expand/kernel", "shape": [1, 1, 28, 672], "dtype": "float32"}, {"name": "block4e_se_expand/bias", "shape": [672], "dtype": "float32"}, {"name": "block4e_se_reduce/kernel", "shape": [1, 1, 672, 28], "dtype": "float32"}, {"name": "block4e_se_reduce/bias", "shape": [28], "dtype": "float32"}, {"name": "block4f_bn/gamma", "shape": [672], "dtype": "float32"}, {"name": "block4f_bn/beta", "shape": [672], "dtype": "float32"}, {"name": "block4f_bn/moving_mean", "shape": [672], "dtype": "float32"}, {"name": "block4f_bn/moving_variance", "shape": [672], "dtype": "float32"}, {"name": "block4f_dwconv/depthwise_kernel", "shape": [3, 3, 672, 1], "dtype": "float32"}, {"name": "block4f_expand_bn/gamma", "shape": [672], "dtype": "float32"}, {"name": "block4f_expand_bn/beta", "shape": [672], "dtype": "float32"}, {"name": "block4f_expand_bn/moving_mean", "shape": [672], "dtype": "float32"}, {"name": "block4f_expand_bn/moving_variance", "shape": [672], "dtype": "float32"}, {"name": "block4f_expand_conv/kernel", "shape": [1, 1, 112, 672], "dtype": "float32"}, {"name": "block4f_project_bn/gamma", "shape": [112], "dtype": "float32"}, {"name": "block4f_project_bn/beta", "shape": [112], "dtype": "float32"}, {"name": "block4f_project_bn/moving_mean", "shape": [112], "dtype": "float32"}, {"name": "block4f_project_bn/moving_variance", "shape": [112], "dtype": "float32"}, {"name": "block4f_project_conv/kernel", "shape": [1, 1, 672, 112], "dtype": "float32"}, {"name": "block4f_se_expand/kernel", "shape": [1, 1, 28, 672], "dtype": "float32"}, {"name": "block4f_se_expand/bias", "shape": [672], "dtype": "float32"}, {"name": "block4f_se_reduce/kernel", "shape": [1, 1, 672, 28], "dtype": "float32"}, {"name": "block4f_se_reduce/bias", "shape": [28], "dtype": "float32"}, {"name": "block5a_bn/gamma", "shape": [672], "dtype": "float32"}, {"name": "block5a_bn/beta", "shape": [672], "dtype": "float32"}, {"name": "block5a_bn/moving_mean", "shape": [672], "dtype": "float32"}, {"name": "block5a_bn/moving_variance", "shape": [672], "dtype": "float32"}, {"name": "block5a_dwconv/depthwise_kernel", "shape": [5, 5, 672, 1], "dtype": "float32"}, {"name": "block5a_expand_bn/gamma", "shape": [672], "dtype": "float32"}, {"name": "block5a_expand_bn/beta", "shape": [672], "dtype": "float32"}, {"name": "block5a_expand_bn/moving_mean", "shape": [672], "dtype": "float32"}, {"name": "block5a_expand_bn/moving_variance", "shape": [672], "dtype": "float32"}, {"name": "block5a_expand_conv/kernel", "shape": [1, 1, 112, 672], "dtype": "float32"}, {"name": "block5a_project_bn/gamma", "shape": [160], "dtype": "float32"}, {"name": "block5a_project_bn/beta", "shape": [160], "dtype": "float32"}, {"name": "block5a_project_bn/moving_mean", "shape": [160], "dtype": "float32"}, {"name": "block5a_project_bn/moving_variance", "shape": [160], "dtype": "float32"}, {"name": "block5a_project_conv/kernel", "shape": [1, 1, 672, 160], "dtype": "float32"}, {"name": "block5a_se_expand/kernel", "shape": [1, 1, 28, 672], "dtype": "float32"}, {"name": "block5a_se_expand/bias", "shape": [672], "dtype": "float32"}, {"name": "block5a_se_reduce/kernel", "shape": [1, 1, 672, 28], "dtype": "float32"}, {"name": "block5a_se_reduce/bias", "shape": [28], "dtype": "float32"}, {"name": "block5b_bn/gamma", "shape": [960], "dtype": "float32"}, {"name": "block5b_bn/beta", "shape": [960], "dtype": "float32"}, {"name": "block5b_bn/moving_mean", "shape": [960], "dtype": "float32"}, {"name": "block5b_bn/moving_variance", "shape": [960], "dtype": "float32"}, {"name": "block5b_dwconv/depthwise_kernel", "shape": [5, 5, 960, 1], "dtype": "float32"}, {"name": "block5b_expand_bn/gamma", "shape": [960], "dtype": "float32"}, {"name": "block5b_expand_bn/beta", "shape": [960], "dtype": "float32"}, {"name": "block5b_expand_bn/moving_mean", "shape": [960], "dtype": "float32"}, {"name": "block5b_expand_bn/moving_variance", "shape": [960], "dtype": "float32"}, {"name": "block5b_expand_conv/kernel", "shape": [1, 1, 160, 960], "dtype": "float32"}, {"name": "block5b_project_bn/gamma", "shape": [160], "dtype": "float32"}, {"name": "block5b_project_bn/beta", "shape": [160], "dtype": "float32"}, {"name": "block5b_project_bn/moving_mean", "shape": [160], "dtype": "float32"}, {"name": "block5b_project_bn/moving_variance", "shape": [160], "dtype": "float32"}, {"name": "block5b_project_conv/kernel", "shape": [1, 1, 960, 160], "dtype": "float32"}, {"name": "block5b_se_expand/kernel", "shape": [1, 1, 40, 960], "dtype": "float32"}, {"name": "block5b_se_expand/bias", "shape": [960], "dtype": "float32"}, {"name": "block5b_se_reduce/kernel", "shape": [1, 1, 960, 40], "dtype": "float32"}, {"name": "block5b_se_reduce/bias", "shape": [40], "dtype": "float32"}, {"name": "block5c_bn/gamma", "shape": [960], "dtype": "float32"}, {"name": "block5c_bn/beta", "shape": [960], "dtype": "float32"}, {"name": "block5c_bn/moving_mean", "shape": [960], "dtype": "float32"}, {"name": "block5c_bn/moving_variance", "shape": [960], "dtype": "float32"}, {"name": "block5c_dwconv/depthwise_kernel", "shape": [5, 5, 960, 1], "dtype": "float32"}, {"name": "block5c_expand_bn/gamma", "shape": [960], "dtype": "float32"}, {"name": "block5c_expand_bn/beta", "shape": [960], "dtype": "float32"}, {"name": "block5c_expand_bn/moving_mean", "shape": [960], "dtype": "float32"}, {"name": "block5c_expand_bn/moving_variance", "shape": [960], "dtype": "float32"}, {"name": "block5c_expand_conv/kernel", "shape": [1, 1, 160, 960], "dtype": "float32"}, {"name": "block5c_project_bn/gamma", "shape": [160], "dtype": "float32"}, {"name": "block5c_project_bn/beta", "shape": [160], "dtype": "float32"}, {"name": "block5c_project_bn/moving_mean", "shape": [160], "dtype": "float32"}, {"name": "block5c_project_bn/moving_variance", "shape": [160], "dtype": "float32"}, {"name": "block5c_project_conv/kernel", "shape": [1, 1, 960, 160], "dtype": "float32"}, {"name": "block5c_se_expand/kernel", "shape": [1, 1, 40, 960], "dtype": "float32"}, {"name": "block5c_se_expand/bias", "shape": [960], "dtype": "float32"}, {"name": "block5c_se_reduce/kernel", "shape": [1, 1, 960, 40], "dtype": "float32"}, {"name": "block5c_se_reduce/bias", "shape": [40], "dtype": "float32"}, {"name": "block5d_bn/gamma", "shape": [960], "dtype": "float32"}, {"name": "block5d_bn/beta", "shape": [960], "dtype": "float32"}, {"name": "block5d_bn/moving_mean", "shape": [960], "dtype": "float32"}, {"name": "block5d_bn/moving_variance", "shape": [960], "dtype": "float32"}, {"name": "block5d_dwconv/depthwise_kernel", "shape": [5, 5, 960, 1], "dtype": "float32"}, {"name": "block5d_expand_bn/gamma", "shape": [960], "dtype": "float32"}, {"name": "block5d_expand_bn/beta", "shape": [960], "dtype": "float32"}, {"name": "block5d_expand_bn/moving_mean", "shape": [960], "dtype": "float32"}, {"name": "block5d_expand_bn/moving_variance", "shape": [960], "dtype": "float32"}, {"name": "block5d_expand_conv/kernel", "shape": [1, 1, 160, 960], "dtype": "float32"}, {"name": "block5d_project_bn/gamma", "shape": [160], "dtype": "float32"}, {"name": "block5d_project_bn/beta", "shape": [160], "dtype": "float32"}, {"name": "block5d_project_bn/moving_mean", "shape": [160], "dtype": "float32"}, {"name": "block5d_project_bn/moving_variance", "shape": [160], "dtype": "float32"}, {"name": "block5d_project_conv/kernel", "shape": [1, 1, 960, 160], "dtype": "float32"}, {"name": "block5d_se_expand/kernel", "shape": [1, 1, 40, 960], "dtype": "float32"}, {"name": "block5d_se_expand/bias", "shape": [960], "dtype": "float32"}, {"name": "block5d_se_reduce/kernel", "shape": [1, 1, 960, 40], "dtype": "float32"}, {"name": "block5d_se_reduce/bias", "shape": [40], "dtype": "float32"}, {"name": "block5e_bn/gamma", "shape": [960], "dtype": "float32"}, {"name": "block5e_bn/beta", "shape": [960], "dtype": "float32"}, {"name": "block5e_bn/moving_mean", "shape": [960], "dtype": "float32"}, {"name": "block5e_bn/moving_variance", "shape": [960], "dtype": "float32"}, {"name": "block5e_dwconv/depthwise_kernel", "shape": [5, 5, 960, 1], "dtype": "float32"}, {"name": "block5e_expand_bn/gamma", "shape": [960], "dtype": "float32"}, {"name": "block5e_expand_bn/beta", "shape": [960], "dtype": "float32"}, {"name": "block5e_expand_bn/moving_mean", "shape": [960], "dtype": "float32"}, {"name": "block5e_expand_bn/moving_variance", "shape": [960], "dtype": "float32"}, {"name": "block5e_expand_conv/kernel", "shape": [1, 1, 160, 960], "dtype": "float32"}, {"name": "block5e_project_bn/gamma", "shape": [160], "dtype": "float32"}, {"name": "block5e_project_bn/beta", "shape": [160], "dtype": "float32"}, {"name": "block5e_project_bn/moving_mean", "shape": [160], "dtype": "float32"}, {"name": "block5e_project_bn/moving_variance", "shape": [160], "dtype": "float32"}, {"name": "block5e_project_conv/kernel", "shape": [1, 1, 960, 160], "dtype": "float32"}, {"name": "block5e_se_expand/kernel", "shape": [1, 1, 40, 960], "dtype": "float32"}, {"name": "block5e_se_expand/bias", "shape": [960], "dtype": "float32"}, {"name": "block5e_se_reduce/kernel", "shape": [1, 1, 960, 40], "dtype": "float32"}, {"name": "block5e_se_reduce/bias", "shape": [40], "dtype": "float32"}, {"name": "block5f_bn/gamma", "shape": [960], "dtype": "float32"}, {"name": "block5f_bn/beta", "shape": [960], "dtype": "float32"}, {"name": "block5f_bn/moving_mean", "shape": [960], "dtype": "float32"}, {"name": "block5f_bn/moving_variance", "shape": [960], "dtype": "float32"}, {"name": "block5f_dwconv/depthwise_kernel", "shape": [5, 5, 960, 1], "dtype": "float32"}, {"name": "block5f_expand_bn/gamma", "shape": [960], "dtype": "float32"}, {"name": "block5f_expand_bn/beta", "shape": [960], "dtype": "float32"}, {"name": "block5f_expand_bn/moving_mean", "shape": [960], "dtype": "float32"}, {"name": "block5f_expand_bn/moving_variance", "shape": [960], "dtype": "float32"}, {"name": "block5f_expand_conv/kernel", "shape": [1, 1, 160, 960], "dtype": "float32"}, {"name": "block5f_project_bn/gamma", "shape": [160], "dtype": "float32"}, {"name": "block5f_project_bn/beta", "shape": [160], "dtype": "float32"}, {"name": "block5f_project_bn/moving_mean", "shape": [160], "dtype": "float32"}, {"name": "block5f_project_bn/moving_variance", "shape": [160], "dtype": "float32"}, {"name": "block5f_project_conv/kernel", "shape": [1, 1, 960, 160], "dtype": "float32"}, {"name": "block5f_se_expand/kernel", "shape": [1, 1, 40, 960], "dtype": "float32"}, {"name": "block5f_se_expand/bias", "shape": [960], "dtype": "float32"}, {"name": "block5f_se_reduce/kernel", "shape": [1, 1, 960, 40], "dtype": "float32"}, {"name": "block5f_se_reduce/bias", "shape": [40], "dtype": "float32"}, {"name": "block6a_bn/gamma", "shape": [960], "dtype": "float32"}, {"name": "block6a_bn/beta", "shape": [960], "dtype": "float32"}, {"name": "block6a_bn/moving_mean", "shape": [960], "dtype": "float32"}, {"name": "block6a_bn/moving_variance", "shape": [960], "dtype": "float32"}, {"name": "block6a_dwconv/depthwise_kernel", "shape": [5, 5, 960, 1], "dtype": "float32"}, {"name": "block6a_expand_bn/gamma", "shape": [960], "dtype": "float32"}, {"name": "block6a_expand_bn/beta", "shape": [960], "dtype": "float32"}, {"name": "block6a_expand_bn/moving_mean", "shape": [960], "dtype": "float32"}, {"name": "block6a_expand_bn/moving_variance", "shape": [960], "dtype": "float32"}, {"name": "block6a_expand_conv/kernel", "shape": [1, 1, 160, 960], "dtype": "float32"}, {"name": "block6a_project_bn/gamma", "shape": [272], "dtype": "float32"}, {"name": "block6a_project_bn/beta", "shape": [272], "dtype": "float32"}, {"name": "block6a_project_bn/moving_mean", "shape": [272], "dtype": "float32"}, {"name": "block6a_project_bn/moving_variance", "shape": [272], "dtype": "float32"}, {"name": "block6a_project_conv/kernel", "shape": [1, 1, 960, 272], "dtype": "float32"}, {"name": "block6a_se_expand/kernel", "shape": [1, 1, 40, 960], "dtype": "float32"}, {"name": "block6a_se_expand/bias", "shape": [960], "dtype": "float32"}, {"name": "block6a_se_reduce/kernel", "shape": [1, 1, 960, 40], "dtype": "float32"}, {"name": "block6a_se_reduce/bias", "shape": [40], "dtype": "float32"}, {"name": "block6b_bn/gamma", "shape": [1632], "dtype": "float32"}, {"name": "block6b_bn/beta", "shape": [1632], "dtype": "float32"}, {"name": "block6b_bn/moving_mean", "shape": [1632], "dtype": "float32"}, {"name": "block6b_bn/moving_variance", "shape": [1632], "dtype": "float32"}, {"name": "block6b_dwconv/depthwise_kernel", "shape": [5, 5, 1632, 1], "dtype": "float32"}, {"name": "block6b_expand_bn/gamma", "shape": [1632], "dtype": "float32"}, {"name": "block6b_expand_bn/beta", "shape": [1632], "dtype": "float32"}, {"name": "block6b_expand_bn/moving_mean", "shape": [1632], "dtype": "float32"}, {"name": "block6b_expand_bn/moving_variance", "shape": [1632], "dtype": "float32"}, {"name": "block6b_expand_conv/kernel", "shape": [1, 1, 272, 1632], "dtype": "float32"}, {"name": "block6b_project_bn/gamma", "shape": [272], "dtype": "float32"}, {"name": "block6b_project_bn/beta", "shape": [272], "dtype": "float32"}, {"name": "block6b_project_bn/moving_mean", "shape": [272], "dtype": "float32"}, {"name": "block6b_project_bn/moving_variance", "shape": [272], "dtype": "float32"}, {"name": "block6b_project_conv/kernel", "shape": [1, 1, 1632, 272], "dtype": "float32"}, {"name": "block6b_se_expand/kernel", "shape": [1, 1, 68, 1632], "dtype": "float32"}, {"name": "block6b_se_expand/bias", "shape": [1632], "dtype": "float32"}, {"name": "block6b_se_reduce/kernel", "shape": [1, 1, 1632, 68], "dtype": "float32"}, {"name": "block6b_se_reduce/bias", "shape": [68], "dtype": "float32"}, {"name": "block6c_bn/gamma", "shape": [1632], "dtype": "float32"}, {"name": "block6c_bn/beta", "shape": [1632], "dtype": "float32"}, {"name": "block6c_bn/moving_mean", "shape": [1632], "dtype": "float32"}, {"name": "block6c_bn/moving_variance", "shape": [1632], "dtype": "float32"}, {"name": "block6c_dwconv/depthwise_kernel", "shape": [5, 5, 1632, 1], "dtype": "float32"}, {"name": "block6c_expand_bn/gamma", "shape": [1632], "dtype": "float32"}, {"name": "block6c_expand_bn/beta", "shape": [1632], "dtype": "float32"}, {"name": "block6c_expand_bn/moving_mean", "shape": [1632], "dtype": "float32"}, {"name": "block6c_expand_bn/moving_variance", "shape": [1632], "dtype": "float32"}, {"name": "block6c_expand_conv/kernel", "shape": [1, 1, 272, 1632], "dtype": "float32"}, {"name": "block6c_project_bn/gamma", "shape": [272], "dtype": "float32"}, {"name": "block6c_project_bn/beta", "shape": [272], "dtype": "float32"}, {"name": "block6c_project_bn/moving_mean", "shape": [272], "dtype": "float32"}, {"name": "block6c_project_bn/moving_variance", "shape": [272], "dtype": "float32"}, {"name": "block6c_project_conv/kernel", "shape": [1, 1, 1632, 272], "dtype": "float32"}, {"name": "block6c_se_expand/kernel", "shape": [1, 1, 68, 1632], "dtype": "float32"}, {"name": "block6c_se_expand/bias", "shape": [1632], "dtype": "float32"}, {"name": "block6c_se_reduce/kernel", "shape": [1, 1, 1632, 68], "dtype": "float32"}, {"name": "block6c_se_reduce/bias", "shape": [68], "dtype": "float32"}, {"name": "block6d_bn/gamma", "shape": [1632], "dtype": "float32"}, {"name": "block6d_bn/beta", "shape": [1632], "dtype": "float32"}, {"name": "block6d_bn/moving_mean", "shape": [1632], "dtype": "float32"}, {"name": "block6d_bn/moving_variance", "shape": [1632], "dtype": "float32"}, {"name": "block6d_dwconv/depthwise_kernel", "shape": [5, 5, 1632, 1], "dtype": "float32"}, {"name": "block6d_expand_bn/gamma", "shape": [1632], "dtype": "float32"}, {"name": "block6d_expand_bn/beta", "shape": [1632], "dtype": "float32"}, {"name": "block6d_expand_bn/moving_mean", "shape": [1632], "dtype": "float32"}, {"name": "block6d_expand_bn/moving_variance", "shape": [1632], "dtype": "float32"}, {"name": "block6d_expand_conv/kernel", "shape": [1, 1, 272, 1632], "dtype": "float32"}, {"name": "block6d_project_bn/gamma", "shape": [272], "dtype": "float32"}, {"name": "block6d_project_bn/beta", "shape": [272], "dtype": "float32"}, {"name": "block6d_project_bn/moving_mean", "shape": [272], "dtype": "float32"}, {"name": "block6d_project_bn/moving_variance", "shape": [272], "dtype": "float32"}, {"name": "block6d_project_conv/kernel", "shape": [1, 1, 1632, 272], "dtype": "float32"}, {"name": "block6d_se_expand/kernel", "shape": [1, 1, 68, 1632], "dtype": "float32"}, {"name": "block6d_se_expand/bias", "shape": [1632], "dtype": "float32"}, {"name": "block6d_se_reduce/kernel", "shape": [1, 1, 1632, 68], "dtype": "float32"}, {"name": "block6d_se_reduce/bias", "shape": [68], "dtype": "float32"}, {"name": "block6e_bn/gamma", "shape": [1632], "dtype": "float32"}, {"name": "block6e_bn/beta", "shape": [1632], "dtype": "float32"}, {"name": "block6e_bn/moving_mean", "shape": [1632], "dtype": "float32"}, {"name": "block6e_bn/moving_variance", "shape": [1632], "dtype": "float32"}, {"name": "block6e_dwconv/depthwise_kernel", "shape": [5, 5, 1632, 1], "dtype": "float32"}, {"name": "block6e_expand_bn/gamma", "shape": [1632], "dtype": "float32"}, {"name": "block6e_expand_bn/beta", "shape": [1632], "dtype": "float32"}, {"name": "block6e_expand_bn/moving_mean", "shape": [1632], "dtype": "float32"}, {"name": "block6e_expand_bn/moving_variance", "shape": [1632], "dtype": "float32"}, {"name": "block6e_expand_conv/kernel", "shape": [1, 1, 272, 1632], "dtype": "float32"}, {"name": "block6e_project_bn/gamma", "shape": [272], "dtype": "float32"}, {"name": "block6e_project_bn/beta", "shape": [272], "dtype": "float32"}, {"name": "block6e_project_bn/moving_mean", "shape": [272], "dtype": "float32"}, {"name": "block6e_project_bn/moving_variance", "shape": [272], "dtype": "float32"}, {"name": "block6e_project_conv/kernel", "shape": [1, 1, 1632, 272], "dtype": "float32"}, {"name": "block6e_se_expand/kernel", "shape": [1, 1, 68, 1632], "dtype": "float32"}, {"name": "block6e_se_expand/bias", "shape": [1632], "dtype": "float32"}, {"name": "block6e_se_reduce/kernel", "shape": [1, 1, 1632, 68], "dtype": "float32"}, {"name": "block6e_se_reduce/bias", "shape": [68], "dtype": "float32"}, {"name": "block6f_bn/gamma", "shape": [1632], "dtype": "float32"}, {"name": "block6f_bn/beta", "shape": [1632], "dtype": "float32"}, {"name": "block6f_bn/moving_mean", "shape": [1632], "dtype": "float32"}, {"name": "block6f_bn/moving_variance", "shape": [1632], "dtype": "float32"}, {"name": "block6f_dwconv/depthwise_kernel", "shape": [5, 5, 1632, 1], "dtype": "float32"}, {"name": "block6f_expand_bn/gamma", "shape": [1632], "dtype": "float32"}, {"name": "block6f_expand_bn/beta", "shape": [1632], "dtype": "float32"}, {"name": "block6f_expand_bn/moving_mean", "shape": [1632], "dtype": "float32"}, {"name": "block6f_expand_bn/moving_variance", "shape": [1632], "dtype": "float32"}, {"name": "block6f_expand_conv/kernel", "shape": [1, 1, 272, 1632], "dtype": "float32"}, {"name": "block6f_project_bn/gamma", "shape": [272], "dtype": "float32"}, {"name": "block6f_project_bn/beta", "shape": [272], "dtype": "float32"}, {"name": "block6f_project_bn/moving_mean", "shape": [272], "dtype": "float32"}, {"name": "block6f_project_bn/moving_variance", "shape": [272], "dtype": "float32"}, {"name": "block6f_project_conv/kernel", "shape": [1, 1, 1632, 272], "dtype": "float32"}, {"name": "block6f_se_expand/kernel", "shape": [1, 1, 68, 1632], "dtype": "float32"}, {"name": "block6f_se_expand/bias", "shape": [1632], "dtype": "float32"}, {"name": "block6f_se_reduce/kernel", "shape": [1, 1, 1632, 68], "dtype": "float32"}, {"name": "block6f_se_reduce/bias", "shape": [68], "dtype": "float32"}, {"name": "block6g_bn/gamma", "shape": [1632], "dtype": "float32"}, {"name": "block6g_bn/beta", "shape": [1632], "dtype": "float32"}, {"name": "block6g_bn/moving_mean", "shape": [1632], "dtype": "float32"}, {"name": "block6g_bn/moving_variance", "shape": [1632], "dtype": "float32"}, {"name": "block6g_dwconv/depthwise_kernel", "shape": [5, 5, 1632, 1], "dtype": "float32"}, {"name": "block6g_expand_bn/gamma", "shape": [1632], "dtype": "float32"}, {"name": "block6g_expand_bn/beta", "shape": [1632], "dtype": "float32"}, {"name": "block6g_expand_bn/moving_mean", "shape": [1632], "dtype": "float32"}, {"name": "block6g_expand_bn/moving_variance", "shape": [1632], "dtype": "float32"}, {"name": "block6g_expand_conv/kernel", "shape": [1, 1, 272, 1632], "dtype": "float32"}, {"name": "block6g_project_bn/gamma", "shape": [272], "dtype": "float32"}, {"name": "block6g_project_bn/beta", "shape": [272], "dtype": "float32"}, {"name": "block6g_project_bn/moving_mean", "shape": [272], "dtype": "float32"}, {"name": "block6g_project_bn/moving_variance", "shape": [272], "dtype": "float32"}, {"name": "block6g_project_conv/kernel", "shape": [1, 1, 1632, 272], "dtype": "float32"}, {"name": "block6g_se_expand/kernel", "shape": [1, 1, 68, 1632], "dtype": "float32"}, {"name": "block6g_se_expand/bias", "shape": [1632], "dtype": "float32"}, {"name": "block6g_se_reduce/kernel", "shape": [1, 1, 1632, 68], "dtype": "float32"}, {"name": "block6g_se_reduce/bias", "shape": [68], "dtype": "float32"}, {"name": "block6h_bn/gamma", "shape": [1632], "dtype": "float32"}, {"name": "block6h_bn/beta", "shape": [1632], "dtype": "float32"}, {"name": "block6h_bn/moving_mean", "shape": [1632], "dtype": "float32"}, {"name": "block6h_bn/moving_variance", "shape": [1632], "dtype": "float32"}, {"name": "block6h_dwconv/depthwise_kernel", "shape": [5, 5, 1632, 1], "dtype": "float32"}, {"name": "block6h_expand_bn/gamma", "shape": [1632], "dtype": "float32"}, {"name": "block6h_expand_bn/beta", "shape": [1632], "dtype": "float32"}, {"name": "block6h_expand_bn/moving_mean", "shape": [1632], "dtype": "float32"}, {"name": "block6h_expand_bn/moving_variance", "shape": [1632], "dtype": "float32"}, {"name": "block6h_expand_conv/kernel", "shape": [1, 1, 272, 1632], "dtype": "float32"}, {"name": "block6h_project_bn/gamma", "shape": [272], "dtype": "float32"}, {"name": "block6h_project_bn/beta", "shape": [272], "dtype": "float32"}, {"name": "block6h_project_bn/moving_mean", "shape": [272], "dtype": "float32"}, {"name": "block6h_project_bn/moving_variance", "shape": [272], "dtype": "float32"}, {"name": "block6h_project_conv/kernel", "shape": [1, 1, 1632, 272], "dtype": "float32"}, {"name": "block6h_se_expand/kernel", "shape": [1, 1, 68, 1632], "dtype": "float32"}, {"name": "block6h_se_expand/bias", "shape": [1632], "dtype": "float32"}, {"name": "block6h_se_reduce/kernel", "shape": [1, 1, 1632, 68], "dtype": "float32"}, {"name": "block6h_se_reduce/bias", "shape": [68], "dtype": "float32"}, {"name": "block7a_bn/gamma", "shape": [1632], "dtype": "float32"}, {"name": "block7a_bn/beta", "shape": [1632], "dtype": "float32"}, {"name": "block7a_bn/moving_mean", "shape": [1632], "dtype": "float32"}, {"name": "block7a_bn/moving_variance", "shape": [1632], "dtype": "float32"}, {"name": "block7a_dwconv/depthwise_kernel", "shape": [3, 3, 1632, 1], "dtype": "float32"}, {"name": "block7a_expand_bn/gamma", "shape": [1632], "dtype": "float32"}, {"name": "block7a_expand_bn/beta", "shape": [1632], "dtype": "float32"}, {"name": "block7a_expand_bn/moving_mean", "shape": [1632], "dtype": "float32"}, {"name": "block7a_expand_bn/moving_variance", "shape": [1632], "dtype": "float32"}, {"name": "block7a_expand_conv/kernel", "shape": [1, 1, 272, 1632], "dtype": "float32"}, {"name": "block7a_project_bn/gamma", "shape": [448], "dtype": "float32"}, {"name": "block7a_project_bn/beta", "shape": [448], "dtype": "float32"}, {"name": "block7a_project_bn/moving_mean", "shape": [448], "dtype": "float32"}, {"name": "block7a_project_bn/moving_variance", "shape": [448], "dtype": "float32"}, {"name": "block7a_project_conv/kernel", "shape": [1, 1, 1632, 448], "dtype": "float32"}, {"name": "block7a_se_expand/kernel", "shape": [1, 1, 68, 1632], "dtype": "float32"}, {"name": "block7a_se_expand/bias", "shape": [1632], "dtype": "float32"}, {"name": "block7a_se_reduce/kernel", "shape": [1, 1, 1632, 68], "dtype": "float32"}, {"name": "block7a_se_reduce/bias", "shape": [68], "dtype": "float32"}, {"name": "block7b_bn/gamma", "shape": [2688], "dtype": "float32"}, {"name": "block7b_bn/beta", "shape": [2688], "dtype": "float32"}, {"name": "block7b_bn/moving_mean", "shape": [2688], "dtype": "float32"}, {"name": "block7b_bn/moving_variance", "shape": [2688], "dtype": "float32"}, {"name": "block7b_dwconv/depthwise_kernel", "shape": [3, 3, 2688, 1], "dtype": "float32"}, {"name": "block7b_expand_bn/gamma", "shape": [2688], "dtype": "float32"}, {"name": "block7b_expand_bn/beta", "shape": [2688], "dtype": "float32"}, {"name": "block7b_expand_bn/moving_mean", "shape": [2688], "dtype": "float32"}, {"name": "block7b_expand_bn/moving_variance", "shape": [2688], "dtype": "float32"}, {"name": "block7b_expand_conv/kernel", "shape": [1, 1, 448, 2688], "dtype": "float32"}, {"name": "block7b_project_bn/gamma", "shape": [448], "dtype": "float32"}, {"name": "block7b_project_bn/beta", "shape": [448], "dtype": "float32"}, {"name": "block7b_project_bn/moving_mean", "shape": [448], "dtype": "float32"}, {"name": "block7b_project_bn/moving_variance", "shape": [448], "dtype": "float32"}, {"name": "block7b_project_conv/kernel", "shape": [1, 1, 2688, 448], "dtype": "float32"}, {"name": "block7b_se_expand/kernel", "shape": [1, 1, 112, 2688], "dtype": "float32"}, {"name": "block7b_se_expand/bias", "shape": [2688], "dtype": "float32"}, {"name": "block7b_se_reduce/kernel", "shape": [1, 1, 2688, 112], "dtype": "float32"}, {"name": "block7b_se_reduce/bias", "shape": [112], "dtype": "float32"}, {"name": "normalization_2/mean", "shape": [3], "dtype": "float32"}, {"name": "normalization_2/variance", "shape": [3], "dtype": "float32"}, {"name": "normalization_2/count", "shape": [], "dtype": "int32"}, {"name": "pred/kernel", "shape": [1792, 6], "dtype": "float32"}, {"name": "pred/bias", "shape": [6], "dtype": "float32"}, {"name": "stem_bn/gamma", "shape": [48], "dtype": "float32"}, {"name": "stem_bn/beta", "shape": [48], "dtype": "float32"}, {"name": "stem_bn/moving_mean", "shape": [48], "dtype": "float32"}, {"name": "stem_bn/moving_variance", "shape": [48], "dtype": "float32"}, {"name": "stem_conv/kernel", "shape": [3, 3, 3, 48], "dtype": "float32"}, {"name": "top_bn/gamma", "shape": [1792], "dtype": "float32"}, {"name": "top_bn/beta", "shape": [1792], "dtype": "float32"}, {"name": "top_bn/moving_mean", "shape": [1792], "dtype": "float32"}, {"name": "top_bn/moving_variance", "shape": [1792], "dtype": "float32"}, {"name": "top_conv/kernel", "shape": [1, 1, 448, 1792], "dtype": "float32"}]}]}